<?xml version="1.0"?>
<net name="torch_jit" version="11">
	<layers>
		<layer id="0" name="input.1" type="Parameter" version="opset1">
			<data shape="3,1,32000" element_type="f32" />
			<output>
				<port id="0" precision="FP32" names="input.1">
					<dim>3</dim>
					<dim>1</dim>
					<dim>32000</dim>
				</port>
			</output>
		</layer>
		<layer id="1" name="Constant_4619" type="Const" version="opset1">
			<data element_type="f32" shape="1, 1, 3" offset="0" size="12" />
			<output>
				<port id="0" precision="FP32">
					<dim>1</dim>
					<dim>1</dim>
					<dim>3</dim>
				</port>
			</output>
		</layer>
		<layer id="2" name="Constant_4618" type="Const" version="opset1">
			<data element_type="f32" shape="1, 1, 128" offset="12" size="512" />
			<output>
				<port id="0" precision="FP32">
					<dim>1</dim>
					<dim>1</dim>
					<dim>128</dim>
				</port>
			</output>
		</layer>
		<layer id="3" name="Constant_4617" type="Const" version="opset1">
			<data element_type="f32" shape="1, 1, 128" offset="524" size="512" />
			<output>
				<port id="0" precision="FP32">
					<dim>1</dim>
					<dim>1</dim>
					<dim>128</dim>
				</port>
			</output>
		</layer>
		<layer id="4" name="Constant_36" type="Const" version="opset1">
			<data element_type="i64" shape="1" offset="1036" size="8" />
			<output>
				<port id="0" precision="I64">
					<dim>1</dim>
				</port>
			</output>
		</layer>
		<layer id="5" name="MVN_37" type="MVN" version="opset6">
			<data eps="9.9999997473787516e-06" normalize_variance="true" eps_mode="INSIDE_SQRT" />
			<input>
				<port id="0" precision="FP32">
					<dim>3</dim>
					<dim>1</dim>
					<dim>32000</dim>
				</port>
				<port id="1" precision="I64">
					<dim>1</dim>
				</port>
			</input>
			<output>
				<port id="2" precision="FP32">
					<dim>3</dim>
					<dim>1</dim>
					<dim>32000</dim>
				</port>
			</output>
		</layer>
		<layer id="6" name="Reshape_57" type="Const" version="opset1">
			<data element_type="f32" shape="1, 1, 1" offset="1044" size="4" />
			<output>
				<port id="0" precision="FP32">
					<dim>1</dim>
					<dim>1</dim>
					<dim>1</dim>
				</port>
			</output>
		</layer>
		<layer id="7" name="Multiply_84" type="Multiply" version="opset1">
			<data auto_broadcast="numpy" />
			<input>
				<port id="0" precision="FP32">
					<dim>3</dim>
					<dim>1</dim>
					<dim>32000</dim>
				</port>
				<port id="1" precision="FP32">
					<dim>1</dim>
					<dim>1</dim>
					<dim>1</dim>
				</port>
			</input>
			<output>
				<port id="2" precision="FP32">
					<dim>3</dim>
					<dim>1</dim>
					<dim>32000</dim>
				</port>
			</output>
		</layer>
		<layer id="8" name="Reshape_102" type="Const" version="opset1">
			<data element_type="f32" shape="1, 1, 1" offset="1048" size="4" />
			<output>
				<port id="0" precision="FP32">
					<dim>1</dim>
					<dim>1</dim>
					<dim>1</dim>
				</port>
			</output>
		</layer>
		<layer id="9" name="/sincnet/wav_norm1d/InstanceNormalization" type="Add" version="opset1">
			<data auto_broadcast="numpy" />
			<input>
				<port id="0" precision="FP32">
					<dim>3</dim>
					<dim>1</dim>
					<dim>32000</dim>
				</port>
				<port id="1" precision="FP32">
					<dim>1</dim>
					<dim>1</dim>
					<dim>1</dim>
				</port>
			</input>
			<output>
				<port id="2" precision="FP32" names="/sincnet/wav_norm1d/InstanceNormalization_output_0">
					<dim>3</dim>
					<dim>1</dim>
					<dim>32000</dim>
				</port>
			</output>
		</layer>
		<layer id="10" name="/sincnet/conv1d.0/Concat_2" type="Const" version="opset1">
			<data element_type="f32" shape="80, 1, 251" offset="1052" size="80320" />
			<output>
				<port id="0" precision="FP32" names="/sincnet/conv1d.0/Concat_2_output_0">
					<dim>80</dim>
					<dim>1</dim>
					<dim>251</dim>
				</port>
			</output>
		</layer>
		<layer id="11" name="Conv_55" type="Convolution" version="opset1">
			<data strides="10" dilations="1" pads_begin="0" pads_end="0" auto_pad="explicit" />
			<input>
				<port id="0" precision="FP32">
					<dim>3</dim>
					<dim>1</dim>
					<dim>32000</dim>
				</port>
				<port id="1" precision="FP32">
					<dim>80</dim>
					<dim>1</dim>
					<dim>251</dim>
				</port>
			</input>
			<output>
				<port id="2" precision="FP32" names="onnx::Abs_114">
					<dim>3</dim>
					<dim>80</dim>
					<dim>3175</dim>
				</port>
			</output>
		</layer>
		<layer id="12" name="/sincnet/Abs" type="Abs" version="opset1">
			<input>
				<port id="0" precision="FP32">
					<dim>3</dim>
					<dim>80</dim>
					<dim>3175</dim>
				</port>
			</input>
			<output>
				<port id="1" precision="FP32" names="/sincnet/Abs_output_0">
					<dim>3</dim>
					<dim>80</dim>
					<dim>3175</dim>
				</port>
			</output>
		</layer>
		<layer id="13" name="/sincnet/pool1d.0/MaxPool" type="MaxPool" version="opset8">
			<data strides="3" dilations="1" pads_begin="0" pads_end="0" kernel="3" rounding_type="floor" auto_pad="explicit" index_element_type="i64" axis="0" />
			<input>
				<port id="0" precision="FP32">
					<dim>3</dim>
					<dim>80</dim>
					<dim>3175</dim>
				</port>
			</input>
			<output>
				<port id="1" precision="FP32" names="/sincnet/pool1d.0/MaxPool_output_0">
					<dim>3</dim>
					<dim>80</dim>
					<dim>1058</dim>
				</port>
				<port id="2" precision="I64">
					<dim>3</dim>
					<dim>80</dim>
					<dim>1058</dim>
				</port>
			</output>
		</layer>
		<layer id="14" name="Constant_205" type="Const" version="opset1">
			<data element_type="i64" shape="1" offset="1036" size="8" />
			<output>
				<port id="0" precision="I64">
					<dim>1</dim>
				</port>
			</output>
		</layer>
		<layer id="15" name="MVN_206" type="MVN" version="opset6">
			<data eps="9.9999997473787516e-06" normalize_variance="true" eps_mode="INSIDE_SQRT" />
			<input>
				<port id="0" precision="FP32">
					<dim>3</dim>
					<dim>80</dim>
					<dim>1058</dim>
				</port>
				<port id="1" precision="I64">
					<dim>1</dim>
				</port>
			</input>
			<output>
				<port id="2" precision="FP32">
					<dim>3</dim>
					<dim>80</dim>
					<dim>1058</dim>
				</port>
			</output>
		</layer>
		<layer id="16" name="Reshape_226" type="Const" version="opset1">
			<data element_type="f32" shape="1, 80, 1" offset="81372" size="320" />
			<output>
				<port id="0" precision="FP32">
					<dim>1</dim>
					<dim>80</dim>
					<dim>1</dim>
				</port>
			</output>
		</layer>
		<layer id="17" name="Multiply_253" type="Multiply" version="opset1">
			<data auto_broadcast="numpy" />
			<input>
				<port id="0" precision="FP32">
					<dim>3</dim>
					<dim>80</dim>
					<dim>1058</dim>
				</port>
				<port id="1" precision="FP32">
					<dim>1</dim>
					<dim>80</dim>
					<dim>1</dim>
				</port>
			</input>
			<output>
				<port id="2" precision="FP32">
					<dim>3</dim>
					<dim>80</dim>
					<dim>1058</dim>
				</port>
			</output>
		</layer>
		<layer id="18" name="Reshape_271" type="Const" version="opset1">
			<data element_type="f32" shape="1, 80, 1" offset="81692" size="320" />
			<output>
				<port id="0" precision="FP32">
					<dim>1</dim>
					<dim>80</dim>
					<dim>1</dim>
				</port>
			</output>
		</layer>
		<layer id="19" name="/sincnet/norm1d.0/InstanceNormalization" type="Add" version="opset1">
			<data auto_broadcast="numpy" />
			<input>
				<port id="0" precision="FP32">
					<dim>3</dim>
					<dim>80</dim>
					<dim>1058</dim>
				</port>
				<port id="1" precision="FP32">
					<dim>1</dim>
					<dim>80</dim>
					<dim>1</dim>
				</port>
			</input>
			<output>
				<port id="2" precision="FP32" names="/sincnet/norm1d.0/InstanceNormalization_output_0">
					<dim>3</dim>
					<dim>80</dim>
					<dim>1058</dim>
				</port>
			</output>
		</layer>
		<layer id="20" name="Constant_299" type="Const" version="opset1">
			<data element_type="f32" shape="1" offset="82012" size="4" />
			<output>
				<port id="0" precision="FP32">
					<dim>1</dim>
				</port>
			</output>
		</layer>
		<layer id="21" name="/sincnet/LeakyRelu" type="PReLU" version="opset1">
			<input>
				<port id="0" precision="FP32">
					<dim>3</dim>
					<dim>80</dim>
					<dim>1058</dim>
				</port>
				<port id="1" precision="FP32">
					<dim>1</dim>
				</port>
			</input>
			<output>
				<port id="2" precision="FP32" names="/sincnet/LeakyRelu_output_0">
					<dim>3</dim>
					<dim>80</dim>
					<dim>1058</dim>
				</port>
			</output>
		</layer>
		<layer id="22" name="sincnet.conv1d.1.weight" type="Const" version="opset1">
			<data element_type="f32" shape="60, 80, 5" offset="82016" size="96000" />
			<output>
				<port id="0" precision="FP32" names="sincnet.conv1d.1.weight">
					<dim>60</dim>
					<dim>80</dim>
					<dim>5</dim>
				</port>
			</output>
		</layer>
		<layer id="23" name="/sincnet/conv1d.1/Conv/WithoutBiases" type="Convolution" version="opset1">
			<data strides="1" dilations="1" pads_begin="0" pads_end="0" auto_pad="explicit" />
			<input>
				<port id="0" precision="FP32">
					<dim>3</dim>
					<dim>80</dim>
					<dim>1058</dim>
				</port>
				<port id="1" precision="FP32">
					<dim>60</dim>
					<dim>80</dim>
					<dim>5</dim>
				</port>
			</input>
			<output>
				<port id="2" precision="FP32">
					<dim>3</dim>
					<dim>60</dim>
					<dim>1054</dim>
				</port>
			</output>
		</layer>
		<layer id="24" name="Reshape_321" type="Const" version="opset1">
			<data element_type="f32" shape="1, 60, 1" offset="178016" size="240" />
			<output>
				<port id="0" precision="FP32">
					<dim>1</dim>
					<dim>60</dim>
					<dim>1</dim>
				</port>
			</output>
		</layer>
		<layer id="25" name="/sincnet/conv1d.1/Conv" type="Add" version="opset1">
			<data auto_broadcast="numpy" />
			<input>
				<port id="0" precision="FP32">
					<dim>3</dim>
					<dim>60</dim>
					<dim>1054</dim>
				</port>
				<port id="1" precision="FP32">
					<dim>1</dim>
					<dim>60</dim>
					<dim>1</dim>
				</port>
			</input>
			<output>
				<port id="2" precision="FP32" names="/sincnet/conv1d.1/Conv_output_0">
					<dim>3</dim>
					<dim>60</dim>
					<dim>1054</dim>
				</port>
			</output>
		</layer>
		<layer id="26" name="/sincnet/pool1d.1/MaxPool" type="MaxPool" version="opset8">
			<data strides="3" dilations="1" pads_begin="0" pads_end="0" kernel="3" rounding_type="floor" auto_pad="explicit" index_element_type="i64" axis="0" />
			<input>
				<port id="0" precision="FP32">
					<dim>3</dim>
					<dim>60</dim>
					<dim>1054</dim>
				</port>
			</input>
			<output>
				<port id="1" precision="FP32" names="/sincnet/pool1d.1/MaxPool_output_0">
					<dim>3</dim>
					<dim>60</dim>
					<dim>351</dim>
				</port>
				<port id="2" precision="I64">
					<dim>3</dim>
					<dim>60</dim>
					<dim>351</dim>
				</port>
			</output>
		</layer>
		<layer id="27" name="Constant_350" type="Const" version="opset1">
			<data element_type="i64" shape="1" offset="1036" size="8" />
			<output>
				<port id="0" precision="I64">
					<dim>1</dim>
				</port>
			</output>
		</layer>
		<layer id="28" name="MVN_351" type="MVN" version="opset6">
			<data eps="9.9999997473787516e-06" normalize_variance="true" eps_mode="INSIDE_SQRT" />
			<input>
				<port id="0" precision="FP32">
					<dim>3</dim>
					<dim>60</dim>
					<dim>351</dim>
				</port>
				<port id="1" precision="I64">
					<dim>1</dim>
				</port>
			</input>
			<output>
				<port id="2" precision="FP32">
					<dim>3</dim>
					<dim>60</dim>
					<dim>351</dim>
				</port>
			</output>
		</layer>
		<layer id="29" name="Reshape_371" type="Const" version="opset1">
			<data element_type="f32" shape="1, 60, 1" offset="178256" size="240" />
			<output>
				<port id="0" precision="FP32">
					<dim>1</dim>
					<dim>60</dim>
					<dim>1</dim>
				</port>
			</output>
		</layer>
		<layer id="30" name="Multiply_398" type="Multiply" version="opset1">
			<data auto_broadcast="numpy" />
			<input>
				<port id="0" precision="FP32">
					<dim>3</dim>
					<dim>60</dim>
					<dim>351</dim>
				</port>
				<port id="1" precision="FP32">
					<dim>1</dim>
					<dim>60</dim>
					<dim>1</dim>
				</port>
			</input>
			<output>
				<port id="2" precision="FP32">
					<dim>3</dim>
					<dim>60</dim>
					<dim>351</dim>
				</port>
			</output>
		</layer>
		<layer id="31" name="Reshape_416" type="Const" version="opset1">
			<data element_type="f32" shape="1, 60, 1" offset="178496" size="240" />
			<output>
				<port id="0" precision="FP32">
					<dim>1</dim>
					<dim>60</dim>
					<dim>1</dim>
				</port>
			</output>
		</layer>
		<layer id="32" name="/sincnet/norm1d.1/InstanceNormalization" type="Add" version="opset1">
			<data auto_broadcast="numpy" />
			<input>
				<port id="0" precision="FP32">
					<dim>3</dim>
					<dim>60</dim>
					<dim>351</dim>
				</port>
				<port id="1" precision="FP32">
					<dim>1</dim>
					<dim>60</dim>
					<dim>1</dim>
				</port>
			</input>
			<output>
				<port id="2" precision="FP32" names="/sincnet/norm1d.1/InstanceNormalization_output_0">
					<dim>3</dim>
					<dim>60</dim>
					<dim>351</dim>
				</port>
			</output>
		</layer>
		<layer id="33" name="Constant_444" type="Const" version="opset1">
			<data element_type="f32" shape="1" offset="82012" size="4" />
			<output>
				<port id="0" precision="FP32">
					<dim>1</dim>
				</port>
			</output>
		</layer>
		<layer id="34" name="/sincnet/LeakyRelu_1" type="PReLU" version="opset1">
			<input>
				<port id="0" precision="FP32">
					<dim>3</dim>
					<dim>60</dim>
					<dim>351</dim>
				</port>
				<port id="1" precision="FP32">
					<dim>1</dim>
				</port>
			</input>
			<output>
				<port id="2" precision="FP32" names="/sincnet/LeakyRelu_1_output_0">
					<dim>3</dim>
					<dim>60</dim>
					<dim>351</dim>
				</port>
			</output>
		</layer>
		<layer id="35" name="sincnet.conv1d.2.weight" type="Const" version="opset1">
			<data element_type="f32" shape="60, 60, 5" offset="178736" size="72000" />
			<output>
				<port id="0" precision="FP32" names="sincnet.conv1d.2.weight">
					<dim>60</dim>
					<dim>60</dim>
					<dim>5</dim>
				</port>
			</output>
		</layer>
		<layer id="36" name="/sincnet/conv1d.2/Conv/WithoutBiases" type="Convolution" version="opset1">
			<data strides="1" dilations="1" pads_begin="0" pads_end="0" auto_pad="explicit" />
			<input>
				<port id="0" precision="FP32">
					<dim>3</dim>
					<dim>60</dim>
					<dim>351</dim>
				</port>
				<port id="1" precision="FP32">
					<dim>60</dim>
					<dim>60</dim>
					<dim>5</dim>
				</port>
			</input>
			<output>
				<port id="2" precision="FP32">
					<dim>3</dim>
					<dim>60</dim>
					<dim>347</dim>
				</port>
			</output>
		</layer>
		<layer id="37" name="Reshape_466" type="Const" version="opset1">
			<data element_type="f32" shape="1, 60, 1" offset="250736" size="240" />
			<output>
				<port id="0" precision="FP32">
					<dim>1</dim>
					<dim>60</dim>
					<dim>1</dim>
				</port>
			</output>
		</layer>
		<layer id="38" name="/sincnet/conv1d.2/Conv" type="Add" version="opset1">
			<data auto_broadcast="numpy" />
			<input>
				<port id="0" precision="FP32">
					<dim>3</dim>
					<dim>60</dim>
					<dim>347</dim>
				</port>
				<port id="1" precision="FP32">
					<dim>1</dim>
					<dim>60</dim>
					<dim>1</dim>
				</port>
			</input>
			<output>
				<port id="2" precision="FP32" names="/sincnet/conv1d.2/Conv_output_0">
					<dim>3</dim>
					<dim>60</dim>
					<dim>347</dim>
				</port>
			</output>
		</layer>
		<layer id="39" name="/sincnet/pool1d.2/MaxPool" type="MaxPool" version="opset8">
			<data strides="3" dilations="1" pads_begin="0" pads_end="0" kernel="3" rounding_type="floor" auto_pad="explicit" index_element_type="i64" axis="0" />
			<input>
				<port id="0" precision="FP32">
					<dim>3</dim>
					<dim>60</dim>
					<dim>347</dim>
				</port>
			</input>
			<output>
				<port id="1" precision="FP32" names="/sincnet/pool1d.2/MaxPool_output_0">
					<dim>3</dim>
					<dim>60</dim>
					<dim>115</dim>
				</port>
				<port id="2" precision="I64">
					<dim>3</dim>
					<dim>60</dim>
					<dim>115</dim>
				</port>
			</output>
		</layer>
		<layer id="40" name="Constant_495" type="Const" version="opset1">
			<data element_type="i64" shape="1" offset="1036" size="8" />
			<output>
				<port id="0" precision="I64">
					<dim>1</dim>
				</port>
			</output>
		</layer>
		<layer id="41" name="MVN_496" type="MVN" version="opset6">
			<data eps="9.9999997473787516e-06" normalize_variance="true" eps_mode="INSIDE_SQRT" />
			<input>
				<port id="0" precision="FP32">
					<dim>3</dim>
					<dim>60</dim>
					<dim>115</dim>
				</port>
				<port id="1" precision="I64">
					<dim>1</dim>
				</port>
			</input>
			<output>
				<port id="2" precision="FP32">
					<dim>3</dim>
					<dim>60</dim>
					<dim>115</dim>
				</port>
			</output>
		</layer>
		<layer id="42" name="Reshape_516" type="Const" version="opset1">
			<data element_type="f32" shape="1, 60, 1" offset="250976" size="240" />
			<output>
				<port id="0" precision="FP32">
					<dim>1</dim>
					<dim>60</dim>
					<dim>1</dim>
				</port>
			</output>
		</layer>
		<layer id="43" name="Multiply_543" type="Multiply" version="opset1">
			<data auto_broadcast="numpy" />
			<input>
				<port id="0" precision="FP32">
					<dim>3</dim>
					<dim>60</dim>
					<dim>115</dim>
				</port>
				<port id="1" precision="FP32">
					<dim>1</dim>
					<dim>60</dim>
					<dim>1</dim>
				</port>
			</input>
			<output>
				<port id="2" precision="FP32">
					<dim>3</dim>
					<dim>60</dim>
					<dim>115</dim>
				</port>
			</output>
		</layer>
		<layer id="44" name="Reshape_561" type="Const" version="opset1">
			<data element_type="f32" shape="1, 60, 1" offset="251216" size="240" />
			<output>
				<port id="0" precision="FP32">
					<dim>1</dim>
					<dim>60</dim>
					<dim>1</dim>
				</port>
			</output>
		</layer>
		<layer id="45" name="/sincnet/norm1d.2/InstanceNormalization" type="Add" version="opset1">
			<data auto_broadcast="numpy" />
			<input>
				<port id="0" precision="FP32">
					<dim>3</dim>
					<dim>60</dim>
					<dim>115</dim>
				</port>
				<port id="1" precision="FP32">
					<dim>1</dim>
					<dim>60</dim>
					<dim>1</dim>
				</port>
			</input>
			<output>
				<port id="2" precision="FP32" names="/sincnet/norm1d.2/InstanceNormalization_output_0">
					<dim>3</dim>
					<dim>60</dim>
					<dim>115</dim>
				</port>
			</output>
		</layer>
		<layer id="46" name="Constant_589" type="Const" version="opset1">
			<data element_type="f32" shape="1" offset="82012" size="4" />
			<output>
				<port id="0" precision="FP32">
					<dim>1</dim>
				</port>
			</output>
		</layer>
		<layer id="47" name="/sincnet/LeakyRelu_2" type="PReLU" version="opset1">
			<input>
				<port id="0" precision="FP32">
					<dim>3</dim>
					<dim>60</dim>
					<dim>115</dim>
				</port>
				<port id="1" precision="FP32">
					<dim>1</dim>
				</port>
			</input>
			<output>
				<port id="2" precision="FP32" names="/sincnet/LeakyRelu_2_output_0">
					<dim>3</dim>
					<dim>60</dim>
					<dim>115</dim>
				</port>
			</output>
		</layer>
		<layer id="48" name="/Constant" type="Const" version="opset1">
			<data element_type="i64" shape="3" offset="251456" size="24" />
			<output>
				<port id="0" precision="I64" names="/Constant_output_0">
					<dim>3</dim>
				</port>
			</output>
		</layer>
		<layer id="49" name="/Reshape" type="Reshape" version="opset1">
			<data special_zero="true" />
			<input>
				<port id="0" precision="FP32">
					<dim>3</dim>
					<dim>60</dim>
					<dim>115</dim>
				</port>
				<port id="1" precision="I64">
					<dim>3</dim>
				</port>
			</input>
			<output>
				<port id="2" precision="FP32" names="/Reshape_output_0">
					<dim>3</dim>
					<dim>60</dim>
					<dim>115</dim>
				</port>
			</output>
		</layer>
		<layer id="50" name="Constant_598" type="Const" version="opset1">
			<data element_type="i64" shape="3" offset="251480" size="24" />
			<output>
				<port id="0" precision="I64">
					<dim>3</dim>
				</port>
			</output>
		</layer>
		<layer id="51" name="/Transpose" type="Transpose" version="opset1">
			<input>
				<port id="0" precision="FP32">
					<dim>3</dim>
					<dim>60</dim>
					<dim>115</dim>
				</port>
				<port id="1" precision="I64">
					<dim>3</dim>
				</port>
			</input>
			<output>
				<port id="2" precision="FP32" names="/Transpose_output_0">
					<dim>3</dim>
					<dim>115</dim>
					<dim>60</dim>
				</port>
			</output>
		</layer>
		<layer id="52" name="/Constant_1" type="Const" version="opset1">
			<data element_type="i64" shape="3" offset="251504" size="24" />
			<output>
				<port id="0" precision="I64" names="/Constant_1_output_0">
					<dim>3</dim>
				</port>
			</output>
		</layer>
		<layer id="53" name="/Reshape_1" type="Reshape" version="opset1">
			<data special_zero="true" />
			<input>
				<port id="0" precision="FP32">
					<dim>3</dim>
					<dim>115</dim>
					<dim>60</dim>
				</port>
				<port id="1" precision="I64">
					<dim>3</dim>
				</port>
			</input>
			<output>
				<port id="2" precision="FP32" names="/Reshape_1_output_0">
					<dim>3</dim>
					<dim>115</dim>
					<dim>60</dim>
				</port>
			</output>
		</layer>
		<layer id="54" name="Constant_607" type="Const" version="opset1">
			<data element_type="i64" shape="3" offset="251528" size="24" />
			<output>
				<port id="0" precision="I64">
					<dim>3</dim>
				</port>
			</output>
		</layer>
		<layer id="55" name="/lstm/Transpose" type="Transpose" version="opset1">
			<input>
				<port id="0" precision="FP32">
					<dim>3</dim>
					<dim>115</dim>
					<dim>60</dim>
				</port>
				<port id="1" precision="I64">
					<dim>3</dim>
				</port>
			</input>
			<output>
				<port id="2" precision="FP32" names="/lstm/Transpose_output_0">
					<dim>115</dim>
					<dim>3</dim>
					<dim>60</dim>
				</port>
			</output>
		</layer>
		<layer id="56" name="Constant_690" type="Const" version="opset1">
			<data element_type="i64" shape="3" offset="251528" size="24" />
			<output>
				<port id="0" precision="I64">
					<dim>3</dim>
				</port>
			</output>
		</layer>
		<layer id="57" name="Transpose_691" type="Transpose" version="opset1">
			<input>
				<port id="0" precision="FP32">
					<dim>115</dim>
					<dim>3</dim>
					<dim>60</dim>
				</port>
				<port id="1" precision="I64">
					<dim>3</dim>
				</port>
			</input>
			<output>
				<port id="2" precision="FP32">
					<dim>3</dim>
					<dim>115</dim>
					<dim>60</dim>
				</port>
			</output>
		</layer>
		<layer id="58" name="/lstm/Constant" type="Const" version="opset1">
			<data element_type="f32" shape="2, 3, 128" offset="251552" size="3072" />
			<output>
				<port id="0" precision="FP32" names="/lstm/Constant_output_0">
					<dim>2</dim>
					<dim>3</dim>
					<dim>128</dim>
				</port>
			</output>
		</layer>
		<layer id="59" name="Constant_82" type="Const" version="opset1">
			<data element_type="i64" shape="1" offset="1036" size="8" />
			<output>
				<port id="0" precision="I64" names="onnx::Concat_847">
					<dim>1</dim>
				</port>
			</output>
		</layer>
		<layer id="60" name="/lstm/Shape" type="ShapeOf" version="opset3">
			<data output_type="i64" />
			<input>
				<port id="0" precision="FP32">
					<dim>115</dim>
					<dim>3</dim>
					<dim>60</dim>
				</port>
			</input>
			<output>
				<port id="1" precision="I64" names="/lstm/Shape_1_output_0,/lstm/Shape_output_0">
					<dim>3</dim>
				</port>
			</output>
		</layer>
		<layer id="61" name="Constant_4366" type="Const" version="opset1">
			<data element_type="i64" shape="1" offset="254624" size="8" />
			<output>
				<port id="0" precision="I64">
					<dim>1</dim>
				</port>
			</output>
		</layer>
		<layer id="62" name="Constant_613" type="Const" version="opset1">
			<data element_type="i64" shape="" offset="254632" size="8" />
			<output>
				<port id="0" precision="I64" />
			</output>
		</layer>
		<layer id="63" name="/lstm/Gather" type="Gather" version="opset8">
			<data batch_dims="0" />
			<input>
				<port id="0" precision="I64">
					<dim>3</dim>
				</port>
				<port id="1" precision="I64">
					<dim>1</dim>
				</port>
				<port id="2" precision="I64" />
			</input>
			<output>
				<port id="3" precision="I64" names="onnx::Concat_283">
					<dim>1</dim>
				</port>
			</output>
		</layer>
		<layer id="64" name="/lstm/Constant_3" type="Const" version="opset1">
			<data element_type="i64" shape="1" offset="254640" size="8" />
			<output>
				<port id="0" precision="I64" names="/lstm/Constant_3_output_0">
					<dim>1</dim>
				</port>
			</output>
		</layer>
		<layer id="65" name="/lstm/Concat" type="Concat" version="opset1">
			<data axis="0" />
			<input>
				<port id="0" precision="I64">
					<dim>1</dim>
				</port>
				<port id="1" precision="I64">
					<dim>1</dim>
				</port>
				<port id="2" precision="I64">
					<dim>1</dim>
				</port>
			</input>
			<output>
				<port id="3" precision="I64" names="/lstm/Concat_output_0">
					<dim>3</dim>
				</port>
			</output>
		</layer>
		<layer id="66" name="/lstm/Expand" type="Broadcast" version="opset3">
			<data mode="bidirectional" />
			<input>
				<port id="0" precision="FP32">
					<dim>2</dim>
					<dim>3</dim>
					<dim>128</dim>
				</port>
				<port id="1" precision="I64">
					<dim>3</dim>
				</port>
			</input>
			<output>
				<port id="2" precision="FP32" names="/lstm/Expand_output_0">
					<dim>2</dim>
					<dim>3</dim>
					<dim>128</dim>
				</port>
			</output>
		</layer>
		<layer id="67" name="Constant_730" type="Const" version="opset1">
			<data element_type="i64" shape="3" offset="251528" size="24" />
			<output>
				<port id="0" precision="I64">
					<dim>3</dim>
				</port>
			</output>
		</layer>
		<layer id="68" name="Transpose_731" type="Transpose" version="opset1">
			<input>
				<port id="0" precision="FP32">
					<dim>2</dim>
					<dim>3</dim>
					<dim>128</dim>
				</port>
				<port id="1" precision="I64">
					<dim>3</dim>
				</port>
			</input>
			<output>
				<port id="2" precision="FP32">
					<dim>3</dim>
					<dim>2</dim>
					<dim>128</dim>
				</port>
			</output>
		</layer>
		<layer id="69" name="/lstm/Constant_1" type="Const" version="opset1">
			<data element_type="f32" shape="2, 3, 128" offset="251552" size="3072" />
			<output>
				<port id="0" precision="FP32" names="/lstm/Constant_1_output_0">
					<dim>2</dim>
					<dim>3</dim>
					<dim>128</dim>
				</port>
			</output>
		</layer>
		<layer id="70" name="Constant_91" type="Const" version="opset1">
			<data element_type="i64" shape="1" offset="1036" size="8" />
			<output>
				<port id="0" precision="I64" names="onnx::Concat_848">
					<dim>1</dim>
				</port>
			</output>
		</layer>
		<layer id="71" name="Constant_4375" type="Const" version="opset1">
			<data element_type="i64" shape="1" offset="254624" size="8" />
			<output>
				<port id="0" precision="I64">
					<dim>1</dim>
				</port>
			</output>
		</layer>
		<layer id="72" name="Constant_652" type="Const" version="opset1">
			<data element_type="i64" shape="" offset="254632" size="8" />
			<output>
				<port id="0" precision="I64" />
			</output>
		</layer>
		<layer id="73" name="/lstm/Gather_1" type="Gather" version="opset8">
			<data batch_dims="0" />
			<input>
				<port id="0" precision="I64">
					<dim>3</dim>
				</port>
				<port id="1" precision="I64">
					<dim>1</dim>
				</port>
				<port id="2" precision="I64" />
			</input>
			<output>
				<port id="3" precision="I64" names="onnx::Concat_294">
					<dim>1</dim>
				</port>
			</output>
		</layer>
		<layer id="74" name="/lstm/Constant_5" type="Const" version="opset1">
			<data element_type="i64" shape="1" offset="254640" size="8" />
			<output>
				<port id="0" precision="I64" names="/lstm/Constant_5_output_0">
					<dim>1</dim>
				</port>
			</output>
		</layer>
		<layer id="75" name="/lstm/Concat_1" type="Concat" version="opset1">
			<data axis="0" />
			<input>
				<port id="0" precision="I64">
					<dim>1</dim>
				</port>
				<port id="1" precision="I64">
					<dim>1</dim>
				</port>
				<port id="2" precision="I64">
					<dim>1</dim>
				</port>
			</input>
			<output>
				<port id="3" precision="I64" names="/lstm/Concat_1_output_0">
					<dim>3</dim>
				</port>
			</output>
		</layer>
		<layer id="76" name="/lstm/Expand_1" type="Broadcast" version="opset3">
			<data mode="bidirectional" />
			<input>
				<port id="0" precision="FP32">
					<dim>2</dim>
					<dim>3</dim>
					<dim>128</dim>
				</port>
				<port id="1" precision="I64">
					<dim>3</dim>
				</port>
			</input>
			<output>
				<port id="2" precision="FP32" names="/lstm/Expand_1_output_0">
					<dim>2</dim>
					<dim>3</dim>
					<dim>128</dim>
				</port>
			</output>
		</layer>
		<layer id="77" name="Constant_732" type="Const" version="opset1">
			<data element_type="i64" shape="3" offset="251528" size="24" />
			<output>
				<port id="0" precision="I64">
					<dim>3</dim>
				</port>
			</output>
		</layer>
		<layer id="78" name="Transpose_733" type="Transpose" version="opset1">
			<input>
				<port id="0" precision="FP32">
					<dim>2</dim>
					<dim>3</dim>
					<dim>128</dim>
				</port>
				<port id="1" precision="I64">
					<dim>3</dim>
				</port>
			</input>
			<output>
				<port id="2" precision="FP32">
					<dim>3</dim>
					<dim>2</dim>
					<dim>128</dim>
				</port>
			</output>
		</layer>
		<layer id="79" name="ShapeOf_698" type="ShapeOf" version="opset3">
			<data output_type="i64" />
			<input>
				<port id="0" precision="FP32">
					<dim>3</dim>
					<dim>115</dim>
					<dim>60</dim>
				</port>
			</input>
			<output>
				<port id="1" precision="I64">
					<dim>3</dim>
				</port>
			</output>
		</layer>
		<layer id="80" name="Constant_702" type="Const" version="opset1">
			<data element_type="i32" shape="1" offset="254648" size="4" />
			<output>
				<port id="0" precision="I32">
					<dim>1</dim>
				</port>
			</output>
		</layer>
		<layer id="81" name="Constant_699" type="Const" version="opset1">
			<data element_type="i32" shape="1" offset="254652" size="4" />
			<output>
				<port id="0" precision="I32">
					<dim>1</dim>
				</port>
			</output>
		</layer>
		<layer id="82" name="Gather_703" type="Gather" version="opset8">
			<data batch_dims="0" />
			<input>
				<port id="0" precision="I64">
					<dim>3</dim>
				</port>
				<port id="1" precision="I32">
					<dim>1</dim>
				</port>
				<port id="2" precision="I32">
					<dim>1</dim>
				</port>
			</input>
			<output>
				<port id="3" precision="I64">
					<dim>1</dim>
				</port>
			</output>
		</layer>
		<layer id="83" name="Constant_700" type="Const" version="opset1">
			<data element_type="i32" shape="1" offset="254652" size="4" />
			<output>
				<port id="0" precision="I32">
					<dim>1</dim>
				</port>
			</output>
		</layer>
		<layer id="84" name="Gather_701" type="Gather" version="opset8">
			<data batch_dims="0" />
			<input>
				<port id="0" precision="I64">
					<dim>3</dim>
				</port>
				<port id="1" precision="I32">
					<dim>1</dim>
				</port>
				<port id="2" precision="I32">
					<dim>1</dim>
				</port>
			</input>
			<output>
				<port id="3" precision="I64">
					<dim>1</dim>
				</port>
			</output>
		</layer>
		<layer id="85" name="Broadcast_715" type="Broadcast" version="opset3">
			<data mode="numpy" />
			<input>
				<port id="0" precision="I64">
					<dim>1</dim>
				</port>
				<port id="1" precision="I64">
					<dim>1</dim>
				</port>
			</input>
			<output>
				<port id="2" precision="I64">
					<dim>3</dim>
				</port>
			</output>
		</layer>
		<layer id="86" name="Concat_694" type="Const" version="opset1">
			<data element_type="f32" shape="2, 512, 60" offset="254656" size="245760" />
			<output>
				<port id="0" precision="FP32">
					<dim>2</dim>
					<dim>512</dim>
					<dim>60</dim>
				</port>
			</output>
		</layer>
		<layer id="87" name="Concat_697" type="Const" version="opset1">
			<data element_type="f32" shape="2, 512, 128" offset="500416" size="524288" />
			<output>
				<port id="0" precision="FP32">
					<dim>2</dim>
					<dim>512</dim>
					<dim>128</dim>
				</port>
			</output>
		</layer>
		<layer id="88" name="Concat_714" type="Const" version="opset1">
			<data element_type="f32" shape="2, 512" offset="1024704" size="4096" />
			<output>
				<port id="0" precision="FP32">
					<dim>2</dim>
					<dim>512</dim>
				</port>
			</output>
		</layer>
		<layer id="89" name="LSTMSequence_774" type="LSTMSequence" version="opset5">
			<data direction="bidirectional" hidden_size="128" activations="sigmoid, tanh, tanh" activations_alpha="" activations_beta="" clip="0" />
			<input>
				<port id="0" precision="FP32">
					<dim>3</dim>
					<dim>115</dim>
					<dim>60</dim>
				</port>
				<port id="1" precision="FP32">
					<dim>3</dim>
					<dim>2</dim>
					<dim>128</dim>
				</port>
				<port id="2" precision="FP32">
					<dim>3</dim>
					<dim>2</dim>
					<dim>128</dim>
				</port>
				<port id="3" precision="I64">
					<dim>3</dim>
				</port>
				<port id="4" precision="FP32">
					<dim>2</dim>
					<dim>512</dim>
					<dim>60</dim>
				</port>
				<port id="5" precision="FP32">
					<dim>2</dim>
					<dim>512</dim>
					<dim>128</dim>
				</port>
				<port id="6" precision="FP32">
					<dim>2</dim>
					<dim>512</dim>
				</port>
			</input>
			<output>
				<port id="7" precision="FP32">
					<dim>3</dim>
					<dim>2</dim>
					<dim>115</dim>
					<dim>128</dim>
				</port>
				<port id="8" precision="FP32">
					<dim>3</dim>
					<dim>2</dim>
					<dim>128</dim>
				</port>
				<port id="9" precision="FP32">
					<dim>3</dim>
					<dim>2</dim>
					<dim>128</dim>
				</port>
			</output>
		</layer>
		<layer id="90" name="Constant_4444" type="Const" version="opset1">
			<data element_type="i64" shape="4" offset="1028800" size="32" />
			<output>
				<port id="0" precision="I64">
					<dim>4</dim>
				</port>
			</output>
		</layer>
		<layer id="91" name="/lstm/Transpose_1" type="Transpose" version="opset1">
			<input>
				<port id="0" precision="FP32">
					<dim>3</dim>
					<dim>2</dim>
					<dim>115</dim>
					<dim>128</dim>
				</port>
				<port id="1" precision="I64">
					<dim>4</dim>
				</port>
			</input>
			<output>
				<port id="2" precision="FP32" names="/lstm/Transpose_1_output_0">
					<dim>115</dim>
					<dim>3</dim>
					<dim>2</dim>
					<dim>128</dim>
				</port>
			</output>
		</layer>
		<layer id="92" name="/lstm/Constant_6" type="Const" version="opset1">
			<data element_type="i64" shape="3" offset="1028832" size="24" />
			<output>
				<port id="0" precision="I64" names="/lstm/Constant_6_output_0">
					<dim>3</dim>
				</port>
			</output>
		</layer>
		<layer id="93" name="/lstm/Reshape" type="Reshape" version="opset1">
			<data special_zero="true" />
			<input>
				<port id="0" precision="FP32">
					<dim>115</dim>
					<dim>3</dim>
					<dim>2</dim>
					<dim>128</dim>
				</port>
				<port id="1" precision="I64">
					<dim>3</dim>
				</port>
			</input>
			<output>
				<port id="2" precision="FP32" names="/lstm/Reshape_output_0">
					<dim>115</dim>
					<dim>3</dim>
					<dim>256</dim>
				</port>
			</output>
		</layer>
		<layer id="94" name="Constant_871" type="Const" version="opset1">
			<data element_type="i64" shape="3" offset="251528" size="24" />
			<output>
				<port id="0" precision="I64">
					<dim>3</dim>
				</port>
			</output>
		</layer>
		<layer id="95" name="Transpose_872" type="Transpose" version="opset1">
			<input>
				<port id="0" precision="FP32">
					<dim>115</dim>
					<dim>3</dim>
					<dim>256</dim>
				</port>
				<port id="1" precision="I64">
					<dim>3</dim>
				</port>
			</input>
			<output>
				<port id="2" precision="FP32">
					<dim>3</dim>
					<dim>115</dim>
					<dim>256</dim>
				</port>
			</output>
		</layer>
		<layer id="96" name="/lstm/Constant_7" type="Const" version="opset1">
			<data element_type="f32" shape="2, 3, 128" offset="251552" size="3072" />
			<output>
				<port id="0" precision="FP32" names="/lstm/Constant_7_output_0">
					<dim>2</dim>
					<dim>3</dim>
					<dim>128</dim>
				</port>
			</output>
		</layer>
		<layer id="97" name="Constant_106" type="Const" version="opset1">
			<data element_type="i64" shape="1" offset="1036" size="8" />
			<output>
				<port id="0" precision="I64" names="onnx::Concat_894">
					<dim>1</dim>
				</port>
			</output>
		</layer>
		<layer id="98" name="/lstm/Shape_2" type="ShapeOf" version="opset3">
			<data output_type="i64" />
			<input>
				<port id="0" precision="FP32">
					<dim>115</dim>
					<dim>3</dim>
					<dim>256</dim>
				</port>
			</input>
			<output>
				<port id="1" precision="I64" names="/lstm/Shape_2_output_0,/lstm/Shape_3_output_0">
					<dim>3</dim>
				</port>
			</output>
		</layer>
		<layer id="99" name="Constant_4384" type="Const" version="opset1">
			<data element_type="i64" shape="1" offset="254624" size="8" />
			<output>
				<port id="0" precision="I64">
					<dim>1</dim>
				</port>
			</output>
		</layer>
		<layer id="100" name="Constant_794" type="Const" version="opset1">
			<data element_type="i64" shape="" offset="254632" size="8" />
			<output>
				<port id="0" precision="I64" />
			</output>
		</layer>
		<layer id="101" name="/lstm/Gather_2" type="Gather" version="opset8">
			<data batch_dims="0" />
			<input>
				<port id="0" precision="I64">
					<dim>3</dim>
				</port>
				<port id="1" precision="I64">
					<dim>1</dim>
				</port>
				<port id="2" precision="I64" />
			</input>
			<output>
				<port id="3" precision="I64" names="onnx::Concat_440">
					<dim>1</dim>
				</port>
			</output>
		</layer>
		<layer id="102" name="/lstm/Constant_10" type="Const" version="opset1">
			<data element_type="i64" shape="1" offset="254640" size="8" />
			<output>
				<port id="0" precision="I64" names="/lstm/Constant_10_output_0">
					<dim>1</dim>
				</port>
			</output>
		</layer>
		<layer id="103" name="/lstm/Concat_2" type="Concat" version="opset1">
			<data axis="0" />
			<input>
				<port id="0" precision="I64">
					<dim>1</dim>
				</port>
				<port id="1" precision="I64">
					<dim>1</dim>
				</port>
				<port id="2" precision="I64">
					<dim>1</dim>
				</port>
			</input>
			<output>
				<port id="3" precision="I64" names="/lstm/Concat_2_output_0">
					<dim>3</dim>
				</port>
			</output>
		</layer>
		<layer id="104" name="/lstm/Expand_2" type="Broadcast" version="opset3">
			<data mode="bidirectional" />
			<input>
				<port id="0" precision="FP32">
					<dim>2</dim>
					<dim>3</dim>
					<dim>128</dim>
				</port>
				<port id="1" precision="I64">
					<dim>3</dim>
				</port>
			</input>
			<output>
				<port id="2" precision="FP32" names="/lstm/Expand_2_output_0">
					<dim>2</dim>
					<dim>3</dim>
					<dim>128</dim>
				</port>
			</output>
		</layer>
		<layer id="105" name="Constant_911" type="Const" version="opset1">
			<data element_type="i64" shape="3" offset="251528" size="24" />
			<output>
				<port id="0" precision="I64">
					<dim>3</dim>
				</port>
			</output>
		</layer>
		<layer id="106" name="Transpose_912" type="Transpose" version="opset1">
			<input>
				<port id="0" precision="FP32">
					<dim>2</dim>
					<dim>3</dim>
					<dim>128</dim>
				</port>
				<port id="1" precision="I64">
					<dim>3</dim>
				</port>
			</input>
			<output>
				<port id="2" precision="FP32">
					<dim>3</dim>
					<dim>2</dim>
					<dim>128</dim>
				</port>
			</output>
		</layer>
		<layer id="107" name="/lstm/Constant_8" type="Const" version="opset1">
			<data element_type="f32" shape="2, 3, 128" offset="251552" size="3072" />
			<output>
				<port id="0" precision="FP32" names="/lstm/Constant_8_output_0">
					<dim>2</dim>
					<dim>3</dim>
					<dim>128</dim>
				</port>
			</output>
		</layer>
		<layer id="108" name="Constant_115" type="Const" version="opset1">
			<data element_type="i64" shape="1" offset="1036" size="8" />
			<output>
				<port id="0" precision="I64" names="onnx::Concat_895">
					<dim>1</dim>
				</port>
			</output>
		</layer>
		<layer id="109" name="Constant_4393" type="Const" version="opset1">
			<data element_type="i64" shape="1" offset="254624" size="8" />
			<output>
				<port id="0" precision="I64">
					<dim>1</dim>
				</port>
			</output>
		</layer>
		<layer id="110" name="Constant_833" type="Const" version="opset1">
			<data element_type="i64" shape="" offset="254632" size="8" />
			<output>
				<port id="0" precision="I64" />
			</output>
		</layer>
		<layer id="111" name="/lstm/Gather_3" type="Gather" version="opset8">
			<data batch_dims="0" />
			<input>
				<port id="0" precision="I64">
					<dim>3</dim>
				</port>
				<port id="1" precision="I64">
					<dim>1</dim>
				</port>
				<port id="2" precision="I64" />
			</input>
			<output>
				<port id="3" precision="I64" names="onnx::Concat_451">
					<dim>1</dim>
				</port>
			</output>
		</layer>
		<layer id="112" name="/lstm/Constant_12" type="Const" version="opset1">
			<data element_type="i64" shape="1" offset="254640" size="8" />
			<output>
				<port id="0" precision="I64" names="/lstm/Constant_12_output_0">
					<dim>1</dim>
				</port>
			</output>
		</layer>
		<layer id="113" name="/lstm/Concat_3" type="Concat" version="opset1">
			<data axis="0" />
			<input>
				<port id="0" precision="I64">
					<dim>1</dim>
				</port>
				<port id="1" precision="I64">
					<dim>1</dim>
				</port>
				<port id="2" precision="I64">
					<dim>1</dim>
				</port>
			</input>
			<output>
				<port id="3" precision="I64" names="/lstm/Concat_3_output_0">
					<dim>3</dim>
				</port>
			</output>
		</layer>
		<layer id="114" name="/lstm/Expand_3" type="Broadcast" version="opset3">
			<data mode="bidirectional" />
			<input>
				<port id="0" precision="FP32">
					<dim>2</dim>
					<dim>3</dim>
					<dim>128</dim>
				</port>
				<port id="1" precision="I64">
					<dim>3</dim>
				</port>
			</input>
			<output>
				<port id="2" precision="FP32" names="/lstm/Expand_3_output_0">
					<dim>2</dim>
					<dim>3</dim>
					<dim>128</dim>
				</port>
			</output>
		</layer>
		<layer id="115" name="Constant_913" type="Const" version="opset1">
			<data element_type="i64" shape="3" offset="251528" size="24" />
			<output>
				<port id="0" precision="I64">
					<dim>3</dim>
				</port>
			</output>
		</layer>
		<layer id="116" name="Transpose_914" type="Transpose" version="opset1">
			<input>
				<port id="0" precision="FP32">
					<dim>2</dim>
					<dim>3</dim>
					<dim>128</dim>
				</port>
				<port id="1" precision="I64">
					<dim>3</dim>
				</port>
			</input>
			<output>
				<port id="2" precision="FP32">
					<dim>3</dim>
					<dim>2</dim>
					<dim>128</dim>
				</port>
			</output>
		</layer>
		<layer id="117" name="ShapeOf_879" type="ShapeOf" version="opset3">
			<data output_type="i64" />
			<input>
				<port id="0" precision="FP32">
					<dim>3</dim>
					<dim>115</dim>
					<dim>256</dim>
				</port>
			</input>
			<output>
				<port id="1" precision="I64">
					<dim>3</dim>
				</port>
			</output>
		</layer>
		<layer id="118" name="Constant_883" type="Const" version="opset1">
			<data element_type="i32" shape="1" offset="254648" size="4" />
			<output>
				<port id="0" precision="I32">
					<dim>1</dim>
				</port>
			</output>
		</layer>
		<layer id="119" name="Constant_880" type="Const" version="opset1">
			<data element_type="i32" shape="1" offset="254652" size="4" />
			<output>
				<port id="0" precision="I32">
					<dim>1</dim>
				</port>
			</output>
		</layer>
		<layer id="120" name="Gather_884" type="Gather" version="opset8">
			<data batch_dims="0" />
			<input>
				<port id="0" precision="I64">
					<dim>3</dim>
				</port>
				<port id="1" precision="I32">
					<dim>1</dim>
				</port>
				<port id="2" precision="I32">
					<dim>1</dim>
				</port>
			</input>
			<output>
				<port id="3" precision="I64">
					<dim>1</dim>
				</port>
			</output>
		</layer>
		<layer id="121" name="Constant_881" type="Const" version="opset1">
			<data element_type="i32" shape="1" offset="254652" size="4" />
			<output>
				<port id="0" precision="I32">
					<dim>1</dim>
				</port>
			</output>
		</layer>
		<layer id="122" name="Gather_882" type="Gather" version="opset8">
			<data batch_dims="0" />
			<input>
				<port id="0" precision="I64">
					<dim>3</dim>
				</port>
				<port id="1" precision="I32">
					<dim>1</dim>
				</port>
				<port id="2" precision="I32">
					<dim>1</dim>
				</port>
			</input>
			<output>
				<port id="3" precision="I64">
					<dim>1</dim>
				</port>
			</output>
		</layer>
		<layer id="123" name="Broadcast_896" type="Broadcast" version="opset3">
			<data mode="numpy" />
			<input>
				<port id="0" precision="I64">
					<dim>1</dim>
				</port>
				<port id="1" precision="I64">
					<dim>1</dim>
				</port>
			</input>
			<output>
				<port id="2" precision="I64">
					<dim>3</dim>
				</port>
			</output>
		</layer>
		<layer id="124" name="Concat_875" type="Const" version="opset1">
			<data element_type="f32" shape="2, 512, 256" offset="1028856" size="1048576" />
			<output>
				<port id="0" precision="FP32">
					<dim>2</dim>
					<dim>512</dim>
					<dim>256</dim>
				</port>
			</output>
		</layer>
		<layer id="125" name="Concat_878" type="Const" version="opset1">
			<data element_type="f32" shape="2, 512, 128" offset="2077432" size="524288" />
			<output>
				<port id="0" precision="FP32">
					<dim>2</dim>
					<dim>512</dim>
					<dim>128</dim>
				</port>
			</output>
		</layer>
		<layer id="126" name="Concat_895" type="Const" version="opset1">
			<data element_type="f32" shape="2, 512" offset="2601720" size="4096" />
			<output>
				<port id="0" precision="FP32">
					<dim>2</dim>
					<dim>512</dim>
				</port>
			</output>
		</layer>
		<layer id="127" name="LSTMSequence_955" type="LSTMSequence" version="opset5">
			<data direction="bidirectional" hidden_size="128" activations="sigmoid, tanh, tanh" activations_alpha="" activations_beta="" clip="0" />
			<input>
				<port id="0" precision="FP32">
					<dim>3</dim>
					<dim>115</dim>
					<dim>256</dim>
				</port>
				<port id="1" precision="FP32">
					<dim>3</dim>
					<dim>2</dim>
					<dim>128</dim>
				</port>
				<port id="2" precision="FP32">
					<dim>3</dim>
					<dim>2</dim>
					<dim>128</dim>
				</port>
				<port id="3" precision="I64">
					<dim>3</dim>
				</port>
				<port id="4" precision="FP32">
					<dim>2</dim>
					<dim>512</dim>
					<dim>256</dim>
				</port>
				<port id="5" precision="FP32">
					<dim>2</dim>
					<dim>512</dim>
					<dim>128</dim>
				</port>
				<port id="6" precision="FP32">
					<dim>2</dim>
					<dim>512</dim>
				</port>
			</input>
			<output>
				<port id="7" precision="FP32">
					<dim>3</dim>
					<dim>2</dim>
					<dim>115</dim>
					<dim>128</dim>
				</port>
				<port id="8" precision="FP32">
					<dim>3</dim>
					<dim>2</dim>
					<dim>128</dim>
				</port>
				<port id="9" precision="FP32">
					<dim>3</dim>
					<dim>2</dim>
					<dim>128</dim>
				</port>
			</output>
		</layer>
		<layer id="128" name="Constant_4446" type="Const" version="opset1">
			<data element_type="i64" shape="4" offset="1028800" size="32" />
			<output>
				<port id="0" precision="I64">
					<dim>4</dim>
				</port>
			</output>
		</layer>
		<layer id="129" name="/lstm/Transpose_2" type="Transpose" version="opset1">
			<input>
				<port id="0" precision="FP32">
					<dim>3</dim>
					<dim>2</dim>
					<dim>115</dim>
					<dim>128</dim>
				</port>
				<port id="1" precision="I64">
					<dim>4</dim>
				</port>
			</input>
			<output>
				<port id="2" precision="FP32" names="/lstm/Transpose_2_output_0">
					<dim>115</dim>
					<dim>3</dim>
					<dim>2</dim>
					<dim>128</dim>
				</port>
			</output>
		</layer>
		<layer id="130" name="/lstm/Constant_13" type="Const" version="opset1">
			<data element_type="i64" shape="3" offset="1028832" size="24" />
			<output>
				<port id="0" precision="I64" names="/lstm/Constant_13_output_0">
					<dim>3</dim>
				</port>
			</output>
		</layer>
		<layer id="131" name="/lstm/Reshape_1" type="Reshape" version="opset1">
			<data special_zero="true" />
			<input>
				<port id="0" precision="FP32">
					<dim>115</dim>
					<dim>3</dim>
					<dim>2</dim>
					<dim>128</dim>
				</port>
				<port id="1" precision="I64">
					<dim>3</dim>
				</port>
			</input>
			<output>
				<port id="2" precision="FP32" names="/lstm/Reshape_1_output_0">
					<dim>115</dim>
					<dim>3</dim>
					<dim>256</dim>
				</port>
			</output>
		</layer>
		<layer id="132" name="Constant_1052" type="Const" version="opset1">
			<data element_type="i64" shape="3" offset="251528" size="24" />
			<output>
				<port id="0" precision="I64">
					<dim>3</dim>
				</port>
			</output>
		</layer>
		<layer id="133" name="Transpose_1053" type="Transpose" version="opset1">
			<input>
				<port id="0" precision="FP32">
					<dim>115</dim>
					<dim>3</dim>
					<dim>256</dim>
				</port>
				<port id="1" precision="I64">
					<dim>3</dim>
				</port>
			</input>
			<output>
				<port id="2" precision="FP32">
					<dim>3</dim>
					<dim>115</dim>
					<dim>256</dim>
				</port>
			</output>
		</layer>
		<layer id="134" name="/lstm/Constant_14" type="Const" version="opset1">
			<data element_type="f32" shape="2, 3, 128" offset="251552" size="3072" />
			<output>
				<port id="0" precision="FP32" names="/lstm/Constant_14_output_0">
					<dim>2</dim>
					<dim>3</dim>
					<dim>128</dim>
				</port>
			</output>
		</layer>
		<layer id="135" name="Constant_130" type="Const" version="opset1">
			<data element_type="i64" shape="1" offset="1036" size="8" />
			<output>
				<port id="0" precision="I64" names="onnx::Concat_941">
					<dim>1</dim>
				</port>
			</output>
		</layer>
		<layer id="136" name="/lstm/Shape_4" type="ShapeOf" version="opset3">
			<data output_type="i64" />
			<input>
				<port id="0" precision="FP32">
					<dim>115</dim>
					<dim>3</dim>
					<dim>256</dim>
				</port>
			</input>
			<output>
				<port id="1" precision="I64" names="/lstm/Shape_4_output_0,/lstm/Shape_5_output_0">
					<dim>3</dim>
				</port>
			</output>
		</layer>
		<layer id="137" name="Constant_4402" type="Const" version="opset1">
			<data element_type="i64" shape="1" offset="254624" size="8" />
			<output>
				<port id="0" precision="I64">
					<dim>1</dim>
				</port>
			</output>
		</layer>
		<layer id="138" name="Constant_975" type="Const" version="opset1">
			<data element_type="i64" shape="" offset="254632" size="8" />
			<output>
				<port id="0" precision="I64" />
			</output>
		</layer>
		<layer id="139" name="/lstm/Gather_4" type="Gather" version="opset8">
			<data batch_dims="0" />
			<input>
				<port id="0" precision="I64">
					<dim>3</dim>
				</port>
				<port id="1" precision="I64">
					<dim>1</dim>
				</port>
				<port id="2" precision="I64" />
			</input>
			<output>
				<port id="3" precision="I64" names="onnx::Concat_597">
					<dim>1</dim>
				</port>
			</output>
		</layer>
		<layer id="140" name="/lstm/Constant_17" type="Const" version="opset1">
			<data element_type="i64" shape="1" offset="254640" size="8" />
			<output>
				<port id="0" precision="I64" names="/lstm/Constant_17_output_0">
					<dim>1</dim>
				</port>
			</output>
		</layer>
		<layer id="141" name="/lstm/Concat_4" type="Concat" version="opset1">
			<data axis="0" />
			<input>
				<port id="0" precision="I64">
					<dim>1</dim>
				</port>
				<port id="1" precision="I64">
					<dim>1</dim>
				</port>
				<port id="2" precision="I64">
					<dim>1</dim>
				</port>
			</input>
			<output>
				<port id="3" precision="I64" names="/lstm/Concat_4_output_0">
					<dim>3</dim>
				</port>
			</output>
		</layer>
		<layer id="142" name="/lstm/Expand_4" type="Broadcast" version="opset3">
			<data mode="bidirectional" />
			<input>
				<port id="0" precision="FP32">
					<dim>2</dim>
					<dim>3</dim>
					<dim>128</dim>
				</port>
				<port id="1" precision="I64">
					<dim>3</dim>
				</port>
			</input>
			<output>
				<port id="2" precision="FP32" names="/lstm/Expand_4_output_0">
					<dim>2</dim>
					<dim>3</dim>
					<dim>128</dim>
				</port>
			</output>
		</layer>
		<layer id="143" name="Constant_1092" type="Const" version="opset1">
			<data element_type="i64" shape="3" offset="251528" size="24" />
			<output>
				<port id="0" precision="I64">
					<dim>3</dim>
				</port>
			</output>
		</layer>
		<layer id="144" name="Transpose_1093" type="Transpose" version="opset1">
			<input>
				<port id="0" precision="FP32">
					<dim>2</dim>
					<dim>3</dim>
					<dim>128</dim>
				</port>
				<port id="1" precision="I64">
					<dim>3</dim>
				</port>
			</input>
			<output>
				<port id="2" precision="FP32">
					<dim>3</dim>
					<dim>2</dim>
					<dim>128</dim>
				</port>
			</output>
		</layer>
		<layer id="145" name="/lstm/Constant_15" type="Const" version="opset1">
			<data element_type="f32" shape="2, 3, 128" offset="251552" size="3072" />
			<output>
				<port id="0" precision="FP32" names="/lstm/Constant_15_output_0">
					<dim>2</dim>
					<dim>3</dim>
					<dim>128</dim>
				</port>
			</output>
		</layer>
		<layer id="146" name="Constant_139" type="Const" version="opset1">
			<data element_type="i64" shape="1" offset="1036" size="8" />
			<output>
				<port id="0" precision="I64" names="onnx::Concat_942">
					<dim>1</dim>
				</port>
			</output>
		</layer>
		<layer id="147" name="Constant_4411" type="Const" version="opset1">
			<data element_type="i64" shape="1" offset="254624" size="8" />
			<output>
				<port id="0" precision="I64">
					<dim>1</dim>
				</port>
			</output>
		</layer>
		<layer id="148" name="Constant_1014" type="Const" version="opset1">
			<data element_type="i64" shape="" offset="254632" size="8" />
			<output>
				<port id="0" precision="I64" />
			</output>
		</layer>
		<layer id="149" name="/lstm/Gather_5" type="Gather" version="opset8">
			<data batch_dims="0" />
			<input>
				<port id="0" precision="I64">
					<dim>3</dim>
				</port>
				<port id="1" precision="I64">
					<dim>1</dim>
				</port>
				<port id="2" precision="I64" />
			</input>
			<output>
				<port id="3" precision="I64" names="onnx::Concat_608">
					<dim>1</dim>
				</port>
			</output>
		</layer>
		<layer id="150" name="/lstm/Constant_19" type="Const" version="opset1">
			<data element_type="i64" shape="1" offset="254640" size="8" />
			<output>
				<port id="0" precision="I64" names="/lstm/Constant_19_output_0">
					<dim>1</dim>
				</port>
			</output>
		</layer>
		<layer id="151" name="/lstm/Concat_5" type="Concat" version="opset1">
			<data axis="0" />
			<input>
				<port id="0" precision="I64">
					<dim>1</dim>
				</port>
				<port id="1" precision="I64">
					<dim>1</dim>
				</port>
				<port id="2" precision="I64">
					<dim>1</dim>
				</port>
			</input>
			<output>
				<port id="3" precision="I64" names="/lstm/Concat_5_output_0">
					<dim>3</dim>
				</port>
			</output>
		</layer>
		<layer id="152" name="/lstm/Expand_5" type="Broadcast" version="opset3">
			<data mode="bidirectional" />
			<input>
				<port id="0" precision="FP32">
					<dim>2</dim>
					<dim>3</dim>
					<dim>128</dim>
				</port>
				<port id="1" precision="I64">
					<dim>3</dim>
				</port>
			</input>
			<output>
				<port id="2" precision="FP32" names="/lstm/Expand_5_output_0">
					<dim>2</dim>
					<dim>3</dim>
					<dim>128</dim>
				</port>
			</output>
		</layer>
		<layer id="153" name="Constant_1094" type="Const" version="opset1">
			<data element_type="i64" shape="3" offset="251528" size="24" />
			<output>
				<port id="0" precision="I64">
					<dim>3</dim>
				</port>
			</output>
		</layer>
		<layer id="154" name="Transpose_1095" type="Transpose" version="opset1">
			<input>
				<port id="0" precision="FP32">
					<dim>2</dim>
					<dim>3</dim>
					<dim>128</dim>
				</port>
				<port id="1" precision="I64">
					<dim>3</dim>
				</port>
			</input>
			<output>
				<port id="2" precision="FP32">
					<dim>3</dim>
					<dim>2</dim>
					<dim>128</dim>
				</port>
			</output>
		</layer>
		<layer id="155" name="ShapeOf_1060" type="ShapeOf" version="opset3">
			<data output_type="i64" />
			<input>
				<port id="0" precision="FP32">
					<dim>3</dim>
					<dim>115</dim>
					<dim>256</dim>
				</port>
			</input>
			<output>
				<port id="1" precision="I64">
					<dim>3</dim>
				</port>
			</output>
		</layer>
		<layer id="156" name="Constant_1064" type="Const" version="opset1">
			<data element_type="i32" shape="1" offset="254648" size="4" />
			<output>
				<port id="0" precision="I32">
					<dim>1</dim>
				</port>
			</output>
		</layer>
		<layer id="157" name="Constant_1061" type="Const" version="opset1">
			<data element_type="i32" shape="1" offset="254652" size="4" />
			<output>
				<port id="0" precision="I32">
					<dim>1</dim>
				</port>
			</output>
		</layer>
		<layer id="158" name="Gather_1065" type="Gather" version="opset8">
			<data batch_dims="0" />
			<input>
				<port id="0" precision="I64">
					<dim>3</dim>
				</port>
				<port id="1" precision="I32">
					<dim>1</dim>
				</port>
				<port id="2" precision="I32">
					<dim>1</dim>
				</port>
			</input>
			<output>
				<port id="3" precision="I64">
					<dim>1</dim>
				</port>
			</output>
		</layer>
		<layer id="159" name="Constant_1062" type="Const" version="opset1">
			<data element_type="i32" shape="1" offset="254652" size="4" />
			<output>
				<port id="0" precision="I32">
					<dim>1</dim>
				</port>
			</output>
		</layer>
		<layer id="160" name="Gather_1063" type="Gather" version="opset8">
			<data batch_dims="0" />
			<input>
				<port id="0" precision="I64">
					<dim>3</dim>
				</port>
				<port id="1" precision="I32">
					<dim>1</dim>
				</port>
				<port id="2" precision="I32">
					<dim>1</dim>
				</port>
			</input>
			<output>
				<port id="3" precision="I64">
					<dim>1</dim>
				</port>
			</output>
		</layer>
		<layer id="161" name="Broadcast_1077" type="Broadcast" version="opset3">
			<data mode="numpy" />
			<input>
				<port id="0" precision="I64">
					<dim>1</dim>
				</port>
				<port id="1" precision="I64">
					<dim>1</dim>
				</port>
			</input>
			<output>
				<port id="2" precision="I64">
					<dim>3</dim>
				</port>
			</output>
		</layer>
		<layer id="162" name="Concat_1056" type="Const" version="opset1">
			<data element_type="f32" shape="2, 512, 256" offset="2605816" size="1048576" />
			<output>
				<port id="0" precision="FP32">
					<dim>2</dim>
					<dim>512</dim>
					<dim>256</dim>
				</port>
			</output>
		</layer>
		<layer id="163" name="Concat_1059" type="Const" version="opset1">
			<data element_type="f32" shape="2, 512, 128" offset="3654392" size="524288" />
			<output>
				<port id="0" precision="FP32">
					<dim>2</dim>
					<dim>512</dim>
					<dim>128</dim>
				</port>
			</output>
		</layer>
		<layer id="164" name="Concat_1076" type="Const" version="opset1">
			<data element_type="f32" shape="2, 512" offset="4178680" size="4096" />
			<output>
				<port id="0" precision="FP32">
					<dim>2</dim>
					<dim>512</dim>
				</port>
			</output>
		</layer>
		<layer id="165" name="LSTMSequence_1136" type="LSTMSequence" version="opset5">
			<data direction="bidirectional" hidden_size="128" activations="sigmoid, tanh, tanh" activations_alpha="" activations_beta="" clip="0" />
			<input>
				<port id="0" precision="FP32">
					<dim>3</dim>
					<dim>115</dim>
					<dim>256</dim>
				</port>
				<port id="1" precision="FP32">
					<dim>3</dim>
					<dim>2</dim>
					<dim>128</dim>
				</port>
				<port id="2" precision="FP32">
					<dim>3</dim>
					<dim>2</dim>
					<dim>128</dim>
				</port>
				<port id="3" precision="I64">
					<dim>3</dim>
				</port>
				<port id="4" precision="FP32">
					<dim>2</dim>
					<dim>512</dim>
					<dim>256</dim>
				</port>
				<port id="5" precision="FP32">
					<dim>2</dim>
					<dim>512</dim>
					<dim>128</dim>
				</port>
				<port id="6" precision="FP32">
					<dim>2</dim>
					<dim>512</dim>
				</port>
			</input>
			<output>
				<port id="7" precision="FP32">
					<dim>3</dim>
					<dim>2</dim>
					<dim>115</dim>
					<dim>128</dim>
				</port>
				<port id="8" precision="FP32">
					<dim>3</dim>
					<dim>2</dim>
					<dim>128</dim>
				</port>
				<port id="9" precision="FP32">
					<dim>3</dim>
					<dim>2</dim>
					<dim>128</dim>
				</port>
			</output>
		</layer>
		<layer id="166" name="Constant_4448" type="Const" version="opset1">
			<data element_type="i64" shape="4" offset="1028800" size="32" />
			<output>
				<port id="0" precision="I64">
					<dim>4</dim>
				</port>
			</output>
		</layer>
		<layer id="167" name="/lstm/Transpose_3" type="Transpose" version="opset1">
			<input>
				<port id="0" precision="FP32">
					<dim>3</dim>
					<dim>2</dim>
					<dim>115</dim>
					<dim>128</dim>
				</port>
				<port id="1" precision="I64">
					<dim>4</dim>
				</port>
			</input>
			<output>
				<port id="2" precision="FP32" names="/lstm/Transpose_3_output_0">
					<dim>115</dim>
					<dim>3</dim>
					<dim>2</dim>
					<dim>128</dim>
				</port>
			</output>
		</layer>
		<layer id="168" name="/lstm/Constant_20" type="Const" version="opset1">
			<data element_type="i64" shape="3" offset="1028832" size="24" />
			<output>
				<port id="0" precision="I64" names="/lstm/Constant_20_output_0">
					<dim>3</dim>
				</port>
			</output>
		</layer>
		<layer id="169" name="/lstm/Reshape_2" type="Reshape" version="opset1">
			<data special_zero="true" />
			<input>
				<port id="0" precision="FP32">
					<dim>115</dim>
					<dim>3</dim>
					<dim>2</dim>
					<dim>128</dim>
				</port>
				<port id="1" precision="I64">
					<dim>3</dim>
				</port>
			</input>
			<output>
				<port id="2" precision="FP32" names="/lstm/Reshape_2_output_0">
					<dim>115</dim>
					<dim>3</dim>
					<dim>256</dim>
				</port>
			</output>
		</layer>
		<layer id="170" name="Constant_1233" type="Const" version="opset1">
			<data element_type="i64" shape="3" offset="251528" size="24" />
			<output>
				<port id="0" precision="I64">
					<dim>3</dim>
				</port>
			</output>
		</layer>
		<layer id="171" name="Transpose_1234" type="Transpose" version="opset1">
			<input>
				<port id="0" precision="FP32">
					<dim>115</dim>
					<dim>3</dim>
					<dim>256</dim>
				</port>
				<port id="1" precision="I64">
					<dim>3</dim>
				</port>
			</input>
			<output>
				<port id="2" precision="FP32">
					<dim>3</dim>
					<dim>115</dim>
					<dim>256</dim>
				</port>
			</output>
		</layer>
		<layer id="172" name="/lstm/Constant_21" type="Const" version="opset1">
			<data element_type="f32" shape="2, 3, 128" offset="251552" size="3072" />
			<output>
				<port id="0" precision="FP32" names="/lstm/Constant_21_output_0">
					<dim>2</dim>
					<dim>3</dim>
					<dim>128</dim>
				</port>
			</output>
		</layer>
		<layer id="173" name="Constant_154" type="Const" version="opset1">
			<data element_type="i64" shape="1" offset="1036" size="8" />
			<output>
				<port id="0" precision="I64" names="onnx::Concat_988">
					<dim>1</dim>
				</port>
			</output>
		</layer>
		<layer id="174" name="/lstm/Shape_6" type="ShapeOf" version="opset3">
			<data output_type="i64" />
			<input>
				<port id="0" precision="FP32">
					<dim>115</dim>
					<dim>3</dim>
					<dim>256</dim>
				</port>
			</input>
			<output>
				<port id="1" precision="I64" names="/lstm/Shape_6_output_0,/lstm/Shape_7_output_0">
					<dim>3</dim>
				</port>
			</output>
		</layer>
		<layer id="175" name="Constant_4420" type="Const" version="opset1">
			<data element_type="i64" shape="1" offset="254624" size="8" />
			<output>
				<port id="0" precision="I64">
					<dim>1</dim>
				</port>
			</output>
		</layer>
		<layer id="176" name="Constant_1156" type="Const" version="opset1">
			<data element_type="i64" shape="" offset="254632" size="8" />
			<output>
				<port id="0" precision="I64" />
			</output>
		</layer>
		<layer id="177" name="/lstm/Gather_6" type="Gather" version="opset8">
			<data batch_dims="0" />
			<input>
				<port id="0" precision="I64">
					<dim>3</dim>
				</port>
				<port id="1" precision="I64">
					<dim>1</dim>
				</port>
				<port id="2" precision="I64" />
			</input>
			<output>
				<port id="3" precision="I64" names="onnx::Concat_754">
					<dim>1</dim>
				</port>
			</output>
		</layer>
		<layer id="178" name="/lstm/Constant_24" type="Const" version="opset1">
			<data element_type="i64" shape="1" offset="254640" size="8" />
			<output>
				<port id="0" precision="I64" names="/lstm/Constant_24_output_0">
					<dim>1</dim>
				</port>
			</output>
		</layer>
		<layer id="179" name="/lstm/Concat_6" type="Concat" version="opset1">
			<data axis="0" />
			<input>
				<port id="0" precision="I64">
					<dim>1</dim>
				</port>
				<port id="1" precision="I64">
					<dim>1</dim>
				</port>
				<port id="2" precision="I64">
					<dim>1</dim>
				</port>
			</input>
			<output>
				<port id="3" precision="I64" names="/lstm/Concat_6_output_0">
					<dim>3</dim>
				</port>
			</output>
		</layer>
		<layer id="180" name="/lstm/Expand_6" type="Broadcast" version="opset3">
			<data mode="bidirectional" />
			<input>
				<port id="0" precision="FP32">
					<dim>2</dim>
					<dim>3</dim>
					<dim>128</dim>
				</port>
				<port id="1" precision="I64">
					<dim>3</dim>
				</port>
			</input>
			<output>
				<port id="2" precision="FP32" names="/lstm/Expand_6_output_0">
					<dim>2</dim>
					<dim>3</dim>
					<dim>128</dim>
				</port>
			</output>
		</layer>
		<layer id="181" name="Constant_1273" type="Const" version="opset1">
			<data element_type="i64" shape="3" offset="251528" size="24" />
			<output>
				<port id="0" precision="I64">
					<dim>3</dim>
				</port>
			</output>
		</layer>
		<layer id="182" name="Transpose_1274" type="Transpose" version="opset1">
			<input>
				<port id="0" precision="FP32">
					<dim>2</dim>
					<dim>3</dim>
					<dim>128</dim>
				</port>
				<port id="1" precision="I64">
					<dim>3</dim>
				</port>
			</input>
			<output>
				<port id="2" precision="FP32">
					<dim>3</dim>
					<dim>2</dim>
					<dim>128</dim>
				</port>
			</output>
		</layer>
		<layer id="183" name="/lstm/Constant_22" type="Const" version="opset1">
			<data element_type="f32" shape="2, 3, 128" offset="251552" size="3072" />
			<output>
				<port id="0" precision="FP32" names="/lstm/Constant_22_output_0">
					<dim>2</dim>
					<dim>3</dim>
					<dim>128</dim>
				</port>
			</output>
		</layer>
		<layer id="184" name="Constant_163" type="Const" version="opset1">
			<data element_type="i64" shape="1" offset="1036" size="8" />
			<output>
				<port id="0" precision="I64" names="onnx::Concat_989">
					<dim>1</dim>
				</port>
			</output>
		</layer>
		<layer id="185" name="Constant_4429" type="Const" version="opset1">
			<data element_type="i64" shape="1" offset="254624" size="8" />
			<output>
				<port id="0" precision="I64">
					<dim>1</dim>
				</port>
			</output>
		</layer>
		<layer id="186" name="Constant_1195" type="Const" version="opset1">
			<data element_type="i64" shape="" offset="254632" size="8" />
			<output>
				<port id="0" precision="I64" />
			</output>
		</layer>
		<layer id="187" name="/lstm/Gather_7" type="Gather" version="opset8">
			<data batch_dims="0" />
			<input>
				<port id="0" precision="I64">
					<dim>3</dim>
				</port>
				<port id="1" precision="I64">
					<dim>1</dim>
				</port>
				<port id="2" precision="I64" />
			</input>
			<output>
				<port id="3" precision="I64" names="onnx::Concat_765">
					<dim>1</dim>
				</port>
			</output>
		</layer>
		<layer id="188" name="/lstm/Constant_26" type="Const" version="opset1">
			<data element_type="i64" shape="1" offset="254640" size="8" />
			<output>
				<port id="0" precision="I64" names="/lstm/Constant_26_output_0">
					<dim>1</dim>
				</port>
			</output>
		</layer>
		<layer id="189" name="/lstm/Concat_7" type="Concat" version="opset1">
			<data axis="0" />
			<input>
				<port id="0" precision="I64">
					<dim>1</dim>
				</port>
				<port id="1" precision="I64">
					<dim>1</dim>
				</port>
				<port id="2" precision="I64">
					<dim>1</dim>
				</port>
			</input>
			<output>
				<port id="3" precision="I64" names="/lstm/Concat_7_output_0">
					<dim>3</dim>
				</port>
			</output>
		</layer>
		<layer id="190" name="/lstm/Expand_7" type="Broadcast" version="opset3">
			<data mode="bidirectional" />
			<input>
				<port id="0" precision="FP32">
					<dim>2</dim>
					<dim>3</dim>
					<dim>128</dim>
				</port>
				<port id="1" precision="I64">
					<dim>3</dim>
				</port>
			</input>
			<output>
				<port id="2" precision="FP32" names="/lstm/Expand_7_output_0">
					<dim>2</dim>
					<dim>3</dim>
					<dim>128</dim>
				</port>
			</output>
		</layer>
		<layer id="191" name="Constant_1275" type="Const" version="opset1">
			<data element_type="i64" shape="3" offset="251528" size="24" />
			<output>
				<port id="0" precision="I64">
					<dim>3</dim>
				</port>
			</output>
		</layer>
		<layer id="192" name="Transpose_1276" type="Transpose" version="opset1">
			<input>
				<port id="0" precision="FP32">
					<dim>2</dim>
					<dim>3</dim>
					<dim>128</dim>
				</port>
				<port id="1" precision="I64">
					<dim>3</dim>
				</port>
			</input>
			<output>
				<port id="2" precision="FP32">
					<dim>3</dim>
					<dim>2</dim>
					<dim>128</dim>
				</port>
			</output>
		</layer>
		<layer id="193" name="ShapeOf_1241" type="ShapeOf" version="opset3">
			<data output_type="i64" />
			<input>
				<port id="0" precision="FP32">
					<dim>3</dim>
					<dim>115</dim>
					<dim>256</dim>
				</port>
			</input>
			<output>
				<port id="1" precision="I64">
					<dim>3</dim>
				</port>
			</output>
		</layer>
		<layer id="194" name="Constant_1245" type="Const" version="opset1">
			<data element_type="i32" shape="1" offset="254648" size="4" />
			<output>
				<port id="0" precision="I32">
					<dim>1</dim>
				</port>
			</output>
		</layer>
		<layer id="195" name="Constant_1242" type="Const" version="opset1">
			<data element_type="i32" shape="1" offset="254652" size="4" />
			<output>
				<port id="0" precision="I32">
					<dim>1</dim>
				</port>
			</output>
		</layer>
		<layer id="196" name="Gather_1246" type="Gather" version="opset8">
			<data batch_dims="0" />
			<input>
				<port id="0" precision="I64">
					<dim>3</dim>
				</port>
				<port id="1" precision="I32">
					<dim>1</dim>
				</port>
				<port id="2" precision="I32">
					<dim>1</dim>
				</port>
			</input>
			<output>
				<port id="3" precision="I64">
					<dim>1</dim>
				</port>
			</output>
		</layer>
		<layer id="197" name="Constant_1243" type="Const" version="opset1">
			<data element_type="i32" shape="1" offset="254652" size="4" />
			<output>
				<port id="0" precision="I32">
					<dim>1</dim>
				</port>
			</output>
		</layer>
		<layer id="198" name="Gather_1244" type="Gather" version="opset8">
			<data batch_dims="0" />
			<input>
				<port id="0" precision="I64">
					<dim>3</dim>
				</port>
				<port id="1" precision="I32">
					<dim>1</dim>
				</port>
				<port id="2" precision="I32">
					<dim>1</dim>
				</port>
			</input>
			<output>
				<port id="3" precision="I64">
					<dim>1</dim>
				</port>
			</output>
		</layer>
		<layer id="199" name="Broadcast_1258" type="Broadcast" version="opset3">
			<data mode="numpy" />
			<input>
				<port id="0" precision="I64">
					<dim>1</dim>
				</port>
				<port id="1" precision="I64">
					<dim>1</dim>
				</port>
			</input>
			<output>
				<port id="2" precision="I64">
					<dim>3</dim>
				</port>
			</output>
		</layer>
		<layer id="200" name="Concat_1237" type="Const" version="opset1">
			<data element_type="f32" shape="2, 512, 256" offset="4182776" size="1048576" />
			<output>
				<port id="0" precision="FP32">
					<dim>2</dim>
					<dim>512</dim>
					<dim>256</dim>
				</port>
			</output>
		</layer>
		<layer id="201" name="Concat_1240" type="Const" version="opset1">
			<data element_type="f32" shape="2, 512, 128" offset="5231352" size="524288" />
			<output>
				<port id="0" precision="FP32">
					<dim>2</dim>
					<dim>512</dim>
					<dim>128</dim>
				</port>
			</output>
		</layer>
		<layer id="202" name="Concat_1257" type="Const" version="opset1">
			<data element_type="f32" shape="2, 512" offset="5755640" size="4096" />
			<output>
				<port id="0" precision="FP32">
					<dim>2</dim>
					<dim>512</dim>
				</port>
			</output>
		</layer>
		<layer id="203" name="LSTMSequence_1317" type="LSTMSequence" version="opset5">
			<data direction="bidirectional" hidden_size="128" activations="sigmoid, tanh, tanh" activations_alpha="" activations_beta="" clip="0" />
			<input>
				<port id="0" precision="FP32">
					<dim>3</dim>
					<dim>115</dim>
					<dim>256</dim>
				</port>
				<port id="1" precision="FP32">
					<dim>3</dim>
					<dim>2</dim>
					<dim>128</dim>
				</port>
				<port id="2" precision="FP32">
					<dim>3</dim>
					<dim>2</dim>
					<dim>128</dim>
				</port>
				<port id="3" precision="I64">
					<dim>3</dim>
				</port>
				<port id="4" precision="FP32">
					<dim>2</dim>
					<dim>512</dim>
					<dim>256</dim>
				</port>
				<port id="5" precision="FP32">
					<dim>2</dim>
					<dim>512</dim>
					<dim>128</dim>
				</port>
				<port id="6" precision="FP32">
					<dim>2</dim>
					<dim>512</dim>
				</port>
			</input>
			<output>
				<port id="7" precision="FP32">
					<dim>3</dim>
					<dim>2</dim>
					<dim>115</dim>
					<dim>128</dim>
				</port>
				<port id="8" precision="FP32">
					<dim>3</dim>
					<dim>2</dim>
					<dim>128</dim>
				</port>
				<port id="9" precision="FP32">
					<dim>3</dim>
					<dim>2</dim>
					<dim>128</dim>
				</port>
			</output>
		</layer>
		<layer id="204" name="Constant_4450" type="Const" version="opset1">
			<data element_type="i64" shape="4" offset="1028800" size="32" />
			<output>
				<port id="0" precision="I64">
					<dim>4</dim>
				</port>
			</output>
		</layer>
		<layer id="205" name="/lstm/Transpose_4" type="Transpose" version="opset1">
			<input>
				<port id="0" precision="FP32">
					<dim>3</dim>
					<dim>2</dim>
					<dim>115</dim>
					<dim>128</dim>
				</port>
				<port id="1" precision="I64">
					<dim>4</dim>
				</port>
			</input>
			<output>
				<port id="2" precision="FP32" names="/lstm/Transpose_4_output_0">
					<dim>115</dim>
					<dim>3</dim>
					<dim>2</dim>
					<dim>128</dim>
				</port>
			</output>
		</layer>
		<layer id="206" name="/lstm/Constant_27" type="Const" version="opset1">
			<data element_type="i64" shape="3" offset="1028832" size="24" />
			<output>
				<port id="0" precision="I64" names="/lstm/Constant_27_output_0">
					<dim>3</dim>
				</port>
			</output>
		</layer>
		<layer id="207" name="/lstm/Reshape_3" type="Reshape" version="opset1">
			<data special_zero="true" />
			<input>
				<port id="0" precision="FP32">
					<dim>115</dim>
					<dim>3</dim>
					<dim>2</dim>
					<dim>128</dim>
				</port>
				<port id="1" precision="I64">
					<dim>3</dim>
				</port>
			</input>
			<output>
				<port id="2" precision="FP32" names="/lstm/Reshape_3_output_0">
					<dim>115</dim>
					<dim>3</dim>
					<dim>256</dim>
				</port>
			</output>
		</layer>
		<layer id="208" name="Constant_1333" type="Const" version="opset1">
			<data element_type="i64" shape="3" offset="251528" size="24" />
			<output>
				<port id="0" precision="I64">
					<dim>3</dim>
				</port>
			</output>
		</layer>
		<layer id="209" name="/lstm/Transpose_5" type="Transpose" version="opset1">
			<input>
				<port id="0" precision="FP32">
					<dim>115</dim>
					<dim>3</dim>
					<dim>256</dim>
				</port>
				<port id="1" precision="I64">
					<dim>3</dim>
				</port>
			</input>
			<output>
				<port id="2" precision="FP32" names="/lstm/Transpose_5_output_0">
					<dim>3</dim>
					<dim>115</dim>
					<dim>256</dim>
				</port>
			</output>
		</layer>
		<layer id="210" name="Constant_4499" type="Const" version="opset1">
			<data element_type="f32" shape="128, 256" offset="5759736" size="131072" />
			<output>
				<port id="0" precision="FP32">
					<dim>128</dim>
					<dim>256</dim>
				</port>
			</output>
		</layer>
		<layer id="211" name="/linear.0/MatMul" type="MatMul" version="opset1">
			<data transpose_a="false" transpose_b="true" />
			<input>
				<port id="0" precision="FP32">
					<dim>3</dim>
					<dim>115</dim>
					<dim>256</dim>
				</port>
				<port id="1" precision="FP32">
					<dim>128</dim>
					<dim>256</dim>
				</port>
			</input>
			<output>
				<port id="2" precision="FP32" names="/linear.0/MatMul_output_0">
					<dim>3</dim>
					<dim>115</dim>
					<dim>128</dim>
				</port>
			</output>
		</layer>
		<layer id="212" name="/linear.0/Add" type="Add" version="opset1">
			<data auto_broadcast="numpy" />
			<input>
				<port id="0" precision="FP32">
					<dim>1</dim>
					<dim>1</dim>
					<dim>128</dim>
				</port>
				<port id="1" precision="FP32">
					<dim>3</dim>
					<dim>115</dim>
					<dim>128</dim>
				</port>
			</input>
			<output>
				<port id="2" precision="FP32" names="/linear.0/Add_output_0">
					<dim>3</dim>
					<dim>115</dim>
					<dim>128</dim>
				</port>
			</output>
		</layer>
		<layer id="213" name="Constant_1337" type="Const" version="opset1">
			<data element_type="f32" shape="1" offset="82012" size="4" />
			<output>
				<port id="0" precision="FP32">
					<dim>1</dim>
				</port>
			</output>
		</layer>
		<layer id="214" name="/LeakyRelu" type="PReLU" version="opset1">
			<input>
				<port id="0" precision="FP32">
					<dim>3</dim>
					<dim>115</dim>
					<dim>128</dim>
				</port>
				<port id="1" precision="FP32">
					<dim>1</dim>
				</port>
			</input>
			<output>
				<port id="2" precision="FP32" names="/LeakyRelu_output_0">
					<dim>3</dim>
					<dim>115</dim>
					<dim>128</dim>
				</port>
			</output>
		</layer>
		<layer id="215" name="Constant_4506" type="Const" version="opset1">
			<data element_type="f32" shape="128, 128" offset="5890808" size="65536" />
			<output>
				<port id="0" precision="FP32">
					<dim>128</dim>
					<dim>128</dim>
				</port>
			</output>
		</layer>
		<layer id="216" name="/linear.1/MatMul" type="MatMul" version="opset1">
			<data transpose_a="false" transpose_b="true" />
			<input>
				<port id="0" precision="FP32">
					<dim>3</dim>
					<dim>115</dim>
					<dim>128</dim>
				</port>
				<port id="1" precision="FP32">
					<dim>128</dim>
					<dim>128</dim>
				</port>
			</input>
			<output>
				<port id="2" precision="FP32" names="/linear.1/MatMul_output_0">
					<dim>3</dim>
					<dim>115</dim>
					<dim>128</dim>
				</port>
			</output>
		</layer>
		<layer id="217" name="/linear.1/Add" type="Add" version="opset1">
			<data auto_broadcast="numpy" />
			<input>
				<port id="0" precision="FP32">
					<dim>1</dim>
					<dim>1</dim>
					<dim>128</dim>
				</port>
				<port id="1" precision="FP32">
					<dim>3</dim>
					<dim>115</dim>
					<dim>128</dim>
				</port>
			</input>
			<output>
				<port id="2" precision="FP32" names="/linear.1/Add_output_0">
					<dim>3</dim>
					<dim>115</dim>
					<dim>128</dim>
				</port>
			</output>
		</layer>
		<layer id="218" name="Constant_1341" type="Const" version="opset1">
			<data element_type="f32" shape="1" offset="82012" size="4" />
			<output>
				<port id="0" precision="FP32">
					<dim>1</dim>
				</port>
			</output>
		</layer>
		<layer id="219" name="/LeakyRelu_1" type="PReLU" version="opset1">
			<input>
				<port id="0" precision="FP32">
					<dim>3</dim>
					<dim>115</dim>
					<dim>128</dim>
				</port>
				<port id="1" precision="FP32">
					<dim>1</dim>
				</port>
			</input>
			<output>
				<port id="2" precision="FP32" names="/LeakyRelu_1_output_0">
					<dim>3</dim>
					<dim>115</dim>
					<dim>128</dim>
				</port>
			</output>
		</layer>
		<layer id="220" name="Constant_4513" type="Const" version="opset1">
			<data element_type="f32" shape="3, 128" offset="5956344" size="1536" />
			<output>
				<port id="0" precision="FP32">
					<dim>3</dim>
					<dim>128</dim>
				</port>
			</output>
		</layer>
		<layer id="221" name="/classifier/MatMul" type="MatMul" version="opset1">
			<data transpose_a="false" transpose_b="true" />
			<input>
				<port id="0" precision="FP32">
					<dim>3</dim>
					<dim>115</dim>
					<dim>128</dim>
				</port>
				<port id="1" precision="FP32">
					<dim>3</dim>
					<dim>128</dim>
				</port>
			</input>
			<output>
				<port id="2" precision="FP32" names="/classifier/MatMul_output_0">
					<dim>3</dim>
					<dim>115</dim>
					<dim>3</dim>
				</port>
			</output>
		</layer>
		<layer id="222" name="/classifier/Add" type="Add" version="opset1">
			<data auto_broadcast="numpy" />
			<input>
				<port id="0" precision="FP32">
					<dim>1</dim>
					<dim>1</dim>
					<dim>3</dim>
				</port>
				<port id="1" precision="FP32">
					<dim>3</dim>
					<dim>115</dim>
					<dim>3</dim>
				</port>
			</input>
			<output>
				<port id="2" precision="FP32" names="/classifier/Add_output_0">
					<dim>3</dim>
					<dim>115</dim>
					<dim>3</dim>
				</port>
			</output>
		</layer>
		<layer id="223" name="790" type="Sigmoid" version="opset1">
			<input>
				<port id="0" precision="FP32">
					<dim>3</dim>
					<dim>115</dim>
					<dim>3</dim>
				</port>
			</input>
			<output>
				<port id="1" precision="FP32" names="790">
					<dim>3</dim>
					<dim>115</dim>
					<dim>3</dim>
				</port>
			</output>
		</layer>
		<layer id="224" name="790/sink_port_0" type="Result" version="opset1">
			<input>
				<port id="0" precision="FP32">
					<dim>3</dim>
					<dim>115</dim>
					<dim>3</dim>
				</port>
			</input>
		</layer>
	</layers>
	<edges>
		<edge from-layer="0" from-port="0" to-layer="5" to-port="0" />
		<edge from-layer="1" from-port="0" to-layer="222" to-port="0" />
		<edge from-layer="2" from-port="0" to-layer="217" to-port="0" />
		<edge from-layer="3" from-port="0" to-layer="212" to-port="0" />
		<edge from-layer="4" from-port="0" to-layer="5" to-port="1" />
		<edge from-layer="5" from-port="2" to-layer="7" to-port="0" />
		<edge from-layer="6" from-port="0" to-layer="7" to-port="1" />
		<edge from-layer="7" from-port="2" to-layer="9" to-port="0" />
		<edge from-layer="8" from-port="0" to-layer="9" to-port="1" />
		<edge from-layer="9" from-port="2" to-layer="11" to-port="0" />
		<edge from-layer="10" from-port="0" to-layer="11" to-port="1" />
		<edge from-layer="11" from-port="2" to-layer="12" to-port="0" />
		<edge from-layer="12" from-port="1" to-layer="13" to-port="0" />
		<edge from-layer="13" from-port="1" to-layer="15" to-port="0" />
		<edge from-layer="14" from-port="0" to-layer="15" to-port="1" />
		<edge from-layer="15" from-port="2" to-layer="17" to-port="0" />
		<edge from-layer="16" from-port="0" to-layer="17" to-port="1" />
		<edge from-layer="17" from-port="2" to-layer="19" to-port="0" />
		<edge from-layer="18" from-port="0" to-layer="19" to-port="1" />
		<edge from-layer="19" from-port="2" to-layer="21" to-port="0" />
		<edge from-layer="20" from-port="0" to-layer="21" to-port="1" />
		<edge from-layer="21" from-port="2" to-layer="23" to-port="0" />
		<edge from-layer="22" from-port="0" to-layer="23" to-port="1" />
		<edge from-layer="23" from-port="2" to-layer="25" to-port="0" />
		<edge from-layer="24" from-port="0" to-layer="25" to-port="1" />
		<edge from-layer="25" from-port="2" to-layer="26" to-port="0" />
		<edge from-layer="26" from-port="1" to-layer="28" to-port="0" />
		<edge from-layer="27" from-port="0" to-layer="28" to-port="1" />
		<edge from-layer="28" from-port="2" to-layer="30" to-port="0" />
		<edge from-layer="29" from-port="0" to-layer="30" to-port="1" />
		<edge from-layer="30" from-port="2" to-layer="32" to-port="0" />
		<edge from-layer="31" from-port="0" to-layer="32" to-port="1" />
		<edge from-layer="32" from-port="2" to-layer="34" to-port="0" />
		<edge from-layer="33" from-port="0" to-layer="34" to-port="1" />
		<edge from-layer="34" from-port="2" to-layer="36" to-port="0" />
		<edge from-layer="35" from-port="0" to-layer="36" to-port="1" />
		<edge from-layer="36" from-port="2" to-layer="38" to-port="0" />
		<edge from-layer="37" from-port="0" to-layer="38" to-port="1" />
		<edge from-layer="38" from-port="2" to-layer="39" to-port="0" />
		<edge from-layer="39" from-port="1" to-layer="41" to-port="0" />
		<edge from-layer="40" from-port="0" to-layer="41" to-port="1" />
		<edge from-layer="41" from-port="2" to-layer="43" to-port="0" />
		<edge from-layer="42" from-port="0" to-layer="43" to-port="1" />
		<edge from-layer="43" from-port="2" to-layer="45" to-port="0" />
		<edge from-layer="44" from-port="0" to-layer="45" to-port="1" />
		<edge from-layer="45" from-port="2" to-layer="47" to-port="0" />
		<edge from-layer="46" from-port="0" to-layer="47" to-port="1" />
		<edge from-layer="47" from-port="2" to-layer="49" to-port="0" />
		<edge from-layer="48" from-port="0" to-layer="49" to-port="1" />
		<edge from-layer="49" from-port="2" to-layer="51" to-port="0" />
		<edge from-layer="50" from-port="0" to-layer="51" to-port="1" />
		<edge from-layer="51" from-port="2" to-layer="53" to-port="0" />
		<edge from-layer="52" from-port="0" to-layer="53" to-port="1" />
		<edge from-layer="53" from-port="2" to-layer="55" to-port="0" />
		<edge from-layer="54" from-port="0" to-layer="55" to-port="1" />
		<edge from-layer="55" from-port="2" to-layer="60" to-port="0" />
		<edge from-layer="55" from-port="2" to-layer="57" to-port="0" />
		<edge from-layer="56" from-port="0" to-layer="57" to-port="1" />
		<edge from-layer="57" from-port="2" to-layer="89" to-port="0" />
		<edge from-layer="57" from-port="2" to-layer="79" to-port="0" />
		<edge from-layer="58" from-port="0" to-layer="66" to-port="0" />
		<edge from-layer="59" from-port="0" to-layer="65" to-port="0" />
		<edge from-layer="60" from-port="1" to-layer="63" to-port="0" />
		<edge from-layer="60" from-port="1" to-layer="73" to-port="0" />
		<edge from-layer="61" from-port="0" to-layer="63" to-port="1" />
		<edge from-layer="62" from-port="0" to-layer="63" to-port="2" />
		<edge from-layer="63" from-port="3" to-layer="65" to-port="1" />
		<edge from-layer="64" from-port="0" to-layer="65" to-port="2" />
		<edge from-layer="65" from-port="3" to-layer="66" to-port="1" />
		<edge from-layer="66" from-port="2" to-layer="68" to-port="0" />
		<edge from-layer="67" from-port="0" to-layer="68" to-port="1" />
		<edge from-layer="68" from-port="2" to-layer="89" to-port="1" />
		<edge from-layer="69" from-port="0" to-layer="76" to-port="0" />
		<edge from-layer="70" from-port="0" to-layer="75" to-port="0" />
		<edge from-layer="71" from-port="0" to-layer="73" to-port="1" />
		<edge from-layer="72" from-port="0" to-layer="73" to-port="2" />
		<edge from-layer="73" from-port="3" to-layer="75" to-port="1" />
		<edge from-layer="74" from-port="0" to-layer="75" to-port="2" />
		<edge from-layer="75" from-port="3" to-layer="76" to-port="1" />
		<edge from-layer="76" from-port="2" to-layer="78" to-port="0" />
		<edge from-layer="77" from-port="0" to-layer="78" to-port="1" />
		<edge from-layer="78" from-port="2" to-layer="89" to-port="2" />
		<edge from-layer="79" from-port="1" to-layer="82" to-port="0" />
		<edge from-layer="79" from-port="1" to-layer="84" to-port="0" />
		<edge from-layer="80" from-port="0" to-layer="82" to-port="1" />
		<edge from-layer="81" from-port="0" to-layer="84" to-port="2" />
		<edge from-layer="81" from-port="0" to-layer="82" to-port="2" />
		<edge from-layer="82" from-port="3" to-layer="85" to-port="0" />
		<edge from-layer="83" from-port="0" to-layer="84" to-port="1" />
		<edge from-layer="84" from-port="3" to-layer="85" to-port="1" />
		<edge from-layer="85" from-port="2" to-layer="89" to-port="3" />
		<edge from-layer="86" from-port="0" to-layer="89" to-port="4" />
		<edge from-layer="87" from-port="0" to-layer="89" to-port="5" />
		<edge from-layer="88" from-port="0" to-layer="89" to-port="6" />
		<edge from-layer="89" from-port="7" to-layer="91" to-port="0" />
		<edge from-layer="90" from-port="0" to-layer="91" to-port="1" />
		<edge from-layer="91" from-port="2" to-layer="93" to-port="0" />
		<edge from-layer="92" from-port="0" to-layer="93" to-port="1" />
		<edge from-layer="93" from-port="2" to-layer="98" to-port="0" />
		<edge from-layer="93" from-port="2" to-layer="95" to-port="0" />
		<edge from-layer="94" from-port="0" to-layer="95" to-port="1" />
		<edge from-layer="95" from-port="2" to-layer="127" to-port="0" />
		<edge from-layer="95" from-port="2" to-layer="117" to-port="0" />
		<edge from-layer="96" from-port="0" to-layer="104" to-port="0" />
		<edge from-layer="97" from-port="0" to-layer="103" to-port="0" />
		<edge from-layer="98" from-port="1" to-layer="101" to-port="0" />
		<edge from-layer="98" from-port="1" to-layer="111" to-port="0" />
		<edge from-layer="99" from-port="0" to-layer="101" to-port="1" />
		<edge from-layer="100" from-port="0" to-layer="101" to-port="2" />
		<edge from-layer="101" from-port="3" to-layer="103" to-port="1" />
		<edge from-layer="102" from-port="0" to-layer="103" to-port="2" />
		<edge from-layer="103" from-port="3" to-layer="104" to-port="1" />
		<edge from-layer="104" from-port="2" to-layer="106" to-port="0" />
		<edge from-layer="105" from-port="0" to-layer="106" to-port="1" />
		<edge from-layer="106" from-port="2" to-layer="127" to-port="1" />
		<edge from-layer="107" from-port="0" to-layer="114" to-port="0" />
		<edge from-layer="108" from-port="0" to-layer="113" to-port="0" />
		<edge from-layer="109" from-port="0" to-layer="111" to-port="1" />
		<edge from-layer="110" from-port="0" to-layer="111" to-port="2" />
		<edge from-layer="111" from-port="3" to-layer="113" to-port="1" />
		<edge from-layer="112" from-port="0" to-layer="113" to-port="2" />
		<edge from-layer="113" from-port="3" to-layer="114" to-port="1" />
		<edge from-layer="114" from-port="2" to-layer="116" to-port="0" />
		<edge from-layer="115" from-port="0" to-layer="116" to-port="1" />
		<edge from-layer="116" from-port="2" to-layer="127" to-port="2" />
		<edge from-layer="117" from-port="1" to-layer="122" to-port="0" />
		<edge from-layer="117" from-port="1" to-layer="120" to-port="0" />
		<edge from-layer="118" from-port="0" to-layer="120" to-port="1" />
		<edge from-layer="119" from-port="0" to-layer="120" to-port="2" />
		<edge from-layer="119" from-port="0" to-layer="122" to-port="2" />
		<edge from-layer="120" from-port="3" to-layer="123" to-port="0" />
		<edge from-layer="121" from-port="0" to-layer="122" to-port="1" />
		<edge from-layer="122" from-port="3" to-layer="123" to-port="1" />
		<edge from-layer="123" from-port="2" to-layer="127" to-port="3" />
		<edge from-layer="124" from-port="0" to-layer="127" to-port="4" />
		<edge from-layer="125" from-port="0" to-layer="127" to-port="5" />
		<edge from-layer="126" from-port="0" to-layer="127" to-port="6" />
		<edge from-layer="127" from-port="7" to-layer="129" to-port="0" />
		<edge from-layer="128" from-port="0" to-layer="129" to-port="1" />
		<edge from-layer="129" from-port="2" to-layer="131" to-port="0" />
		<edge from-layer="130" from-port="0" to-layer="131" to-port="1" />
		<edge from-layer="131" from-port="2" to-layer="133" to-port="0" />
		<edge from-layer="131" from-port="2" to-layer="136" to-port="0" />
		<edge from-layer="132" from-port="0" to-layer="133" to-port="1" />
		<edge from-layer="133" from-port="2" to-layer="155" to-port="0" />
		<edge from-layer="133" from-port="2" to-layer="165" to-port="0" />
		<edge from-layer="134" from-port="0" to-layer="142" to-port="0" />
		<edge from-layer="135" from-port="0" to-layer="141" to-port="0" />
		<edge from-layer="136" from-port="1" to-layer="139" to-port="0" />
		<edge from-layer="136" from-port="1" to-layer="149" to-port="0" />
		<edge from-layer="137" from-port="0" to-layer="139" to-port="1" />
		<edge from-layer="138" from-port="0" to-layer="139" to-port="2" />
		<edge from-layer="139" from-port="3" to-layer="141" to-port="1" />
		<edge from-layer="140" from-port="0" to-layer="141" to-port="2" />
		<edge from-layer="141" from-port="3" to-layer="142" to-port="1" />
		<edge from-layer="142" from-port="2" to-layer="144" to-port="0" />
		<edge from-layer="143" from-port="0" to-layer="144" to-port="1" />
		<edge from-layer="144" from-port="2" to-layer="165" to-port="1" />
		<edge from-layer="145" from-port="0" to-layer="152" to-port="0" />
		<edge from-layer="146" from-port="0" to-layer="151" to-port="0" />
		<edge from-layer="147" from-port="0" to-layer="149" to-port="1" />
		<edge from-layer="148" from-port="0" to-layer="149" to-port="2" />
		<edge from-layer="149" from-port="3" to-layer="151" to-port="1" />
		<edge from-layer="150" from-port="0" to-layer="151" to-port="2" />
		<edge from-layer="151" from-port="3" to-layer="152" to-port="1" />
		<edge from-layer="152" from-port="2" to-layer="154" to-port="0" />
		<edge from-layer="153" from-port="0" to-layer="154" to-port="1" />
		<edge from-layer="154" from-port="2" to-layer="165" to-port="2" />
		<edge from-layer="155" from-port="1" to-layer="158" to-port="0" />
		<edge from-layer="155" from-port="1" to-layer="160" to-port="0" />
		<edge from-layer="156" from-port="0" to-layer="158" to-port="1" />
		<edge from-layer="157" from-port="0" to-layer="158" to-port="2" />
		<edge from-layer="157" from-port="0" to-layer="160" to-port="2" />
		<edge from-layer="158" from-port="3" to-layer="161" to-port="0" />
		<edge from-layer="159" from-port="0" to-layer="160" to-port="1" />
		<edge from-layer="160" from-port="3" to-layer="161" to-port="1" />
		<edge from-layer="161" from-port="2" to-layer="165" to-port="3" />
		<edge from-layer="162" from-port="0" to-layer="165" to-port="4" />
		<edge from-layer="163" from-port="0" to-layer="165" to-port="5" />
		<edge from-layer="164" from-port="0" to-layer="165" to-port="6" />
		<edge from-layer="165" from-port="7" to-layer="167" to-port="0" />
		<edge from-layer="166" from-port="0" to-layer="167" to-port="1" />
		<edge from-layer="167" from-port="2" to-layer="169" to-port="0" />
		<edge from-layer="168" from-port="0" to-layer="169" to-port="1" />
		<edge from-layer="169" from-port="2" to-layer="174" to-port="0" />
		<edge from-layer="169" from-port="2" to-layer="171" to-port="0" />
		<edge from-layer="170" from-port="0" to-layer="171" to-port="1" />
		<edge from-layer="171" from-port="2" to-layer="203" to-port="0" />
		<edge from-layer="171" from-port="2" to-layer="193" to-port="0" />
		<edge from-layer="172" from-port="0" to-layer="180" to-port="0" />
		<edge from-layer="173" from-port="0" to-layer="179" to-port="0" />
		<edge from-layer="174" from-port="1" to-layer="177" to-port="0" />
		<edge from-layer="174" from-port="1" to-layer="187" to-port="0" />
		<edge from-layer="175" from-port="0" to-layer="177" to-port="1" />
		<edge from-layer="176" from-port="0" to-layer="177" to-port="2" />
		<edge from-layer="177" from-port="3" to-layer="179" to-port="1" />
		<edge from-layer="178" from-port="0" to-layer="179" to-port="2" />
		<edge from-layer="179" from-port="3" to-layer="180" to-port="1" />
		<edge from-layer="180" from-port="2" to-layer="182" to-port="0" />
		<edge from-layer="181" from-port="0" to-layer="182" to-port="1" />
		<edge from-layer="182" from-port="2" to-layer="203" to-port="1" />
		<edge from-layer="183" from-port="0" to-layer="190" to-port="0" />
		<edge from-layer="184" from-port="0" to-layer="189" to-port="0" />
		<edge from-layer="185" from-port="0" to-layer="187" to-port="1" />
		<edge from-layer="186" from-port="0" to-layer="187" to-port="2" />
		<edge from-layer="187" from-port="3" to-layer="189" to-port="1" />
		<edge from-layer="188" from-port="0" to-layer="189" to-port="2" />
		<edge from-layer="189" from-port="3" to-layer="190" to-port="1" />
		<edge from-layer="190" from-port="2" to-layer="192" to-port="0" />
		<edge from-layer="191" from-port="0" to-layer="192" to-port="1" />
		<edge from-layer="192" from-port="2" to-layer="203" to-port="2" />
		<edge from-layer="193" from-port="1" to-layer="196" to-port="0" />
		<edge from-layer="193" from-port="1" to-layer="198" to-port="0" />
		<edge from-layer="194" from-port="0" to-layer="196" to-port="1" />
		<edge from-layer="195" from-port="0" to-layer="198" to-port="2" />
		<edge from-layer="195" from-port="0" to-layer="196" to-port="2" />
		<edge from-layer="196" from-port="3" to-layer="199" to-port="0" />
		<edge from-layer="197" from-port="0" to-layer="198" to-port="1" />
		<edge from-layer="198" from-port="3" to-layer="199" to-port="1" />
		<edge from-layer="199" from-port="2" to-layer="203" to-port="3" />
		<edge from-layer="200" from-port="0" to-layer="203" to-port="4" />
		<edge from-layer="201" from-port="0" to-layer="203" to-port="5" />
		<edge from-layer="202" from-port="0" to-layer="203" to-port="6" />
		<edge from-layer="203" from-port="7" to-layer="205" to-port="0" />
		<edge from-layer="204" from-port="0" to-layer="205" to-port="1" />
		<edge from-layer="205" from-port="2" to-layer="207" to-port="0" />
		<edge from-layer="206" from-port="0" to-layer="207" to-port="1" />
		<edge from-layer="207" from-port="2" to-layer="209" to-port="0" />
		<edge from-layer="208" from-port="0" to-layer="209" to-port="1" />
		<edge from-layer="209" from-port="2" to-layer="211" to-port="0" />
		<edge from-layer="210" from-port="0" to-layer="211" to-port="1" />
		<edge from-layer="211" from-port="2" to-layer="212" to-port="1" />
		<edge from-layer="212" from-port="2" to-layer="214" to-port="0" />
		<edge from-layer="213" from-port="0" to-layer="214" to-port="1" />
		<edge from-layer="214" from-port="2" to-layer="216" to-port="0" />
		<edge from-layer="215" from-port="0" to-layer="216" to-port="1" />
		<edge from-layer="216" from-port="2" to-layer="217" to-port="1" />
		<edge from-layer="217" from-port="2" to-layer="219" to-port="0" />
		<edge from-layer="218" from-port="0" to-layer="219" to-port="1" />
		<edge from-layer="219" from-port="2" to-layer="221" to-port="0" />
		<edge from-layer="220" from-port="0" to-layer="221" to-port="1" />
		<edge from-layer="221" from-port="2" to-layer="222" to-port="1" />
		<edge from-layer="222" from-port="2" to-layer="223" to-port="0" />
		<edge from-layer="223" from-port="1" to-layer="224" to-port="0" />
	</edges>
	<rt_info>
		<MO_version value="2022.3.0-9052-9752fafe8eb-releases/2022/3" />
		<Runtime_version value="2022.3.0-9052-9752fafe8eb-releases/2022/3" />
		<conversion_parameters>
			<input_model value="DIR/model.onnx" />
		</conversion_parameters>
		<legacy_frontend value="False" />
	</rt_info>
</net>
